…
shape x_training : (227247, 189)  y_training: :  (227247, 24)
shape x_test     :  (75740, 189)  y_test      :  (75740, 24)
shape x_val      :  (75741, 189)  y_val       :  (75741, 24)
=============================================================
(189,)
Model: "MLP"
_________________________________________________________________
 Layer (type)                Output Shape              Param #   
=================================================================
 input_1 (InputLayer)        [(None, 189)]             0         
                                                                 
 dense (Dense)               (None, 1024)              194560    
                                                                 
 elu (ELU)                   (None, 1024)              0         
                                                                 
 dropout (Dropout)           (None, 1024)              0         
                                                                 
 dense_1 (Dense)             (None, 512)               524800    
                                                                 
 dropout_1 (Dropout)         (None, 512)               0         
                                                                 
 dense_2 (Dense)             (None, 512)               262656    
                                                                 
 dropout_2 (Dropout)         (None, 512)               0         
                                                                 
 dense_3 (Dense)             (None, 24)                12312     
                                                                 
=================================================================
Total params: 994,328
Trainable params: 994,328
Non-trainable params: 0
_________________________________________________________________
Epoch 1/200
222/222 [==============================] - 3s 6ms/step - loss: 0.3687 - val_loss: 0.1103
Epoch 2/200
222/222 [==============================] - 1s 5ms/step - loss: 0.2112 - val_loss: 0.1024
…
shape x_training : (227246, 196)  y_training: :  (227246, 24)
shape x_test     :  (75740, 196)  y_test      :  (75740, 24)
shape x_val      :  (75740, 196)  y_val       :  (75740, 24)
=============================================================
(196,)
Model: "MLP"
_________________________________________________________________
 Layer (type)                Output Shape              Param #   
=================================================================
 input_2 (InputLayer)        [(None, 196)]             0         
                                                                 
 dense_4 (Dense)             (None, 1024)              201728    
                                                                 
 elu_1 (ELU)                 (None, 1024)              0         
                                                                 
 dropout_3 (Dropout)         (None, 1024)              0         
                                                                 
 dense_5 (Dense)             (None, 512)               524800    
                                                                 
 dropout_4 (Dropout)         (None, 512)               0         
                                                                 
 dense_6 (Dense)             (None, 512)               262656    
                                                                 
 dropout_5 (Dropout)         (None, 512)               0         
                                                                 
 dense_7 (Dense)             (None, 24)                12312     
                                                                 
=================================================================
Total params: 1,001,496
Trainable params: 1,001,496
Non-trainable params: 0
_________________________________________________________________
Epoch 1/200
222/222 [==============================] - 2s 7ms/step - loss: 0.3707 - val_loss: 0.1100
Epoch 2/200
222/222 [==============================] - 1s 6ms/step - loss: 0.2114 - val_loss: 0.1007
…
shape x_training : (227245, 203)  y_training: :  (227245, 24)
shape x_test     :  (75739, 203)  y_test      :  (75739, 24)
shape x_val      :  (75740, 203)  y_val       :  (75740, 24)
=============================================================
(203,)
Model: "MLP"
_________________________________________________________________
 Layer (type)                Output Shape              Param #   
=================================================================
 input_3 (InputLayer)        [(None, 203)]             0         
                                                                 
 dense_8 (Dense)             (None, 1024)              208896    
                                                                 
 elu_2 (ELU)                 (None, 1024)              0         
                                                                 
 dropout_6 (Dropout)         (None, 1024)              0         
                                                                 
 dense_9 (Dense)             (None, 512)               524800    
                                                                 
 dropout_7 (Dropout)         (None, 512)               0         
                                                                 
 dense_10 (Dense)            (None, 512)               262656    
                                                                 
 dropout_8 (Dropout)         (None, 512)               0         
                                                                 
 dense_11 (Dense)            (None, 24)                12312     
                                                                 
=================================================================
Total params: 1,008,664
Trainable params: 1,008,664
Non-trainable params: 0
_________________________________________________________________
Epoch 1/200
222/222 [==============================] - 2s 7ms/step - loss: 0.3747 - val_loss: 0.1098
Epoch 2/200
222/222 [==============================] - 1s 5ms/step - loss: 0.2123 - val_loss: 0.1017
…
shape x_training : (227244, 210)  y_training: :  (227244, 24)
shape x_test     :  (75739, 210)  y_test      :  (75739, 24)
shape x_val      :  (75739, 210)  y_val       :  (75739, 24)
=============================================================
(210,)
Model: "MLP"
_________________________________________________________________
 Layer (type)                Output Shape              Param #   
=================================================================
 input_4 (InputLayer)        [(None, 210)]             0         
                                                                 
 dense_12 (Dense)            (None, 1024)              216064    
                                                                 
 elu_3 (ELU)                 (None, 1024)              0         
                                                                 
 dropout_9 (Dropout)         (None, 1024)              0         
                                                                 
 dense_13 (Dense)            (None, 512)               524800    
                                                                 
 dropout_10 (Dropout)        (None, 512)               0         
                                                                 
 dense_14 (Dense)            (None, 512)               262656    
                                                                 
 dropout_11 (Dropout)        (None, 512)               0         
                                                                 
 dense_15 (Dense)            (None, 24)                12312     
                                                                 
=================================================================
Total params: 1,015,832
Trainable params: 1,015,832
Non-trainable params: 0
_________________________________________________________________
Epoch 1/200
222/222 [==============================] - 2s 7ms/step - loss: 0.3854 - val_loss: 0.1110
Epoch 2/200
222/222 [==============================] - 1s 6ms/step - loss: 0.2145 - val_loss: 0.1037
…
shape x_training : (227243, 217)  y_training: :  (227243, 24)
shape x_test     :  (75738, 217)  y_test      :  (75738, 24)
shape x_val      :  (75739, 217)  y_val       :  (75739, 24)
=============================================================
(217,)
Model: "MLP"
_________________________________________________________________
 Layer (type)                Output Shape              Param #   
=================================================================
 input_5 (InputLayer)        [(None, 217)]             0         
                                                                 
 dense_16 (Dense)            (None, 1024)              223232    
                                                                 
 elu_4 (ELU)                 (None, 1024)              0         
                                                                 
 dropout_12 (Dropout)        (None, 1024)              0         
                                                                 
 dense_17 (Dense)            (None, 512)               524800    
                                                                 
 dropout_13 (Dropout)        (None, 512)               0         
                                                                 
 dense_18 (Dense)            (None, 512)               262656    
                                                                 
 dropout_14 (Dropout)        (None, 512)               0         
                                                                 
 dense_19 (Dense)            (None, 24)                12312     
                                                                 
=================================================================
Total params: 1,023,000
Trainable params: 1,023,000
Non-trainable params: 0
_________________________________________________________________
Epoch 1/200
222/222 [==============================] - 2s 8ms/step - loss: 0.3778 - val_loss: 0.1099
Epoch 2/200
222/222 [==============================] - 1s 6ms/step - loss: 0.2134 - val_loss: 0.1018
…
shape x_training : (227242, 224)  y_training: :  (227242, 24)
shape x_test     :  (75738, 224)  y_test      :  (75738, 24)
shape x_val      :  (75738, 224)  y_val       :  (75738, 24)
=============================================================
(224,)
Model: "MLP"
_________________________________________________________________
 Layer (type)                Output Shape              Param #   
=================================================================
 input_6 (InputLayer)        [(None, 224)]             0         
                                                                 
 dense_20 (Dense)            (None, 1024)              230400    
                                                                 
 elu_5 (ELU)                 (None, 1024)              0         
                                                                 
 dropout_15 (Dropout)        (None, 1024)              0         
                                                                 
 dense_21 (Dense)            (None, 512)               524800    
                                                                 
 dropout_16 (Dropout)        (None, 512)               0         
                                                                 
 dense_22 (Dense)            (None, 512)               262656    
                                                                 
 dropout_17 (Dropout)        (None, 512)               0         
                                                                 
 dense_23 (Dense)            (None, 24)                12312     
                                                                 
=================================================================
Total params: 1,030,168
Trainable params: 1,030,168
Non-trainable params: 0
_________________________________________________________________
Epoch 1/200
222/222 [==============================] - 2s 8ms/step - loss: 0.3849 - val_loss: 0.1092
Epoch 2/200
222/222 [==============================] - 1s 6ms/step - loss: 0.2152 - val_loss: 0.1014
…
shape x_training : (227241, 231)  y_training: :  (227241, 24)
shape x_test     :  (75737, 231)  y_test      :  (75737, 24)
shape x_val      :  (75738, 231)  y_val       :  (75738, 24)
=============================================================
(231,)
Model: "MLP"
_________________________________________________________________
 Layer (type)                Output Shape              Param #   
=================================================================
 input_7 (InputLayer)        [(None, 231)]             0         
                                                                 
 dense_24 (Dense)            (None, 1024)              237568    
                                                                 
 elu_6 (ELU)                 (None, 1024)              0         
                                                                 
 dropout_18 (Dropout)        (None, 1024)              0         
                                                                 
 dense_25 (Dense)            (None, 512)               524800    
                                                                 
 dropout_19 (Dropout)        (None, 512)               0         
                                                                 
 dense_26 (Dense)            (None, 512)               262656    
                                                                 
 dropout_20 (Dropout)        (None, 512)               0         
                                                                 
 dense_27 (Dense)            (None, 24)                12312     
                                                                 
=================================================================
Total params: 1,037,336
Trainable params: 1,037,336
Non-trainable params: 0
_________________________________________________________________
Epoch 1/200
222/222 [==============================] - 2s 7ms/step - loss: 0.3811 - val_loss: 0.1079
Epoch 2/200
222/222 [==============================] - 1s 6ms/step - loss: 0.2151 - val_loss: 0.1012
…
shape x_training : (227240, 238)  y_training: :  (227240, 24)
shape x_test     :  (75737, 238)  y_test      :  (75737, 24)
shape x_val      :  (75737, 238)  y_val       :  (75737, 24)
=============================================================
(238,)
Model: "MLP"
_________________________________________________________________
 Layer (type)                Output Shape              Param #   
=================================================================
 input_8 (InputLayer)        [(None, 238)]             0         
                                                                 
 dense_28 (Dense)            (None, 1024)              244736    
                                                                 
 elu_7 (ELU)                 (None, 1024)              0         
                                                                 
 dropout_21 (Dropout)        (None, 1024)              0         
                                                                 
 dense_29 (Dense)            (None, 512)               524800    
                                                                 
 dropout_22 (Dropout)        (None, 512)               0         
                                                                 
 dense_30 (Dense)            (None, 512)               262656    
                                                                 
 dropout_23 (Dropout)        (None, 512)               0         
                                                                 
 dense_31 (Dense)            (None, 24)                12312     
                                                                 
=================================================================
Total params: 1,044,504
Trainable params: 1,044,504
Non-trainable params: 0
_________________________________________________________________
Epoch 1/200
222/222 [==============================] - 2s 7ms/step - loss: 0.3851 - val_loss: 0.1090
Epoch 2/200
222/222 [==============================] - 1s 6ms/step - loss: 0.2165 - val_loss: 0.1018
…
shape x_training : (227239, 245)  y_training: :  (227239, 24)
shape x_test     :  (75736, 245)  y_test      :  (75736, 24)
shape x_val      :  (75737, 245)  y_val       :  (75737, 24)
=============================================================
(245,)
Model: "MLP"
_________________________________________________________________
 Layer (type)                Output Shape              Param #   
=================================================================
 input_9 (InputLayer)        [(None, 245)]             0         
                                                                 
 dense_32 (Dense)            (None, 1024)              251904    
                                                                 
 elu_8 (ELU)                 (None, 1024)              0         
                                                                 
 dropout_24 (Dropout)        (None, 1024)              0         
                                                                 
 dense_33 (Dense)            (None, 512)               524800    
                                                                 
 dropout_25 (Dropout)        (None, 512)               0         
                                                                 
 dense_34 (Dense)            (None, 512)               262656    
                                                                 
 dropout_26 (Dropout)        (None, 512)               0         
                                                                 
 dense_35 (Dense)            (None, 24)                12312     
                                                                 
=================================================================
Total params: 1,051,672
Trainable params: 1,051,672
Non-trainable params: 0
_________________________________________________________________
Epoch 1/200
222/222 [==============================] - 2s 7ms/step - loss: 0.3914 - val_loss: 0.1106
Epoch 2/200
222/222 [==============================] - 1s 6ms/step - loss: 0.2178 - val_loss: 0.1016
…
shape x_training : (227238, 252)  y_training: :  (227238, 24)
shape x_test     :  (75736, 252)  y_test      :  (75736, 24)
shape x_val      :  (75736, 252)  y_val       :  (75736, 24)
=============================================================
(252,)
Model: "MLP"
_________________________________________________________________
 Layer (type)                Output Shape              Param #   
=================================================================
 input_10 (InputLayer)       [(None, 252)]             0         
                                                                 
 dense_36 (Dense)            (None, 1024)              259072    
                                                                 
 elu_9 (ELU)                 (None, 1024)              0         
                                                                 
 dropout_27 (Dropout)        (None, 1024)              0         
                                                                 
 dense_37 (Dense)            (None, 512)               524800    
                                                                 
 dropout_28 (Dropout)        (None, 512)               0         
                                                                 
 dense_38 (Dense)            (None, 512)               262656    
                                                                 
 dropout_29 (Dropout)        (None, 512)               0         
                                                                 
 dense_39 (Dense)            (None, 24)                12312     
                                                                 
=================================================================
Total params: 1,058,840
Trainable params: 1,058,840
Non-trainable params: 0
_________________________________________________________________
Epoch 1/200
222/222 [==============================] - 2s 8ms/step - loss: 0.4028 - val_loss: 0.1096
Epoch 2/200
222/222 [==============================] - 1s 6ms/step - loss: 0.2196 - val_loss: 0.1026
…
shape x_training : (227237, 259)  y_training: :  (227237, 24)
shape x_test     :  (75735, 259)  y_test      :  (75735, 24)
shape x_val      :  (75736, 259)  y_val       :  (75736, 24)
=============================================================
(259,)
Model: "MLP"
_________________________________________________________________
 Layer (type)                Output Shape              Param #   
=================================================================
 input_11 (InputLayer)       [(None, 259)]             0         
                                                                 
 dense_40 (Dense)            (None, 1024)              266240    
                                                                 
 elu_10 (ELU)                (None, 1024)              0         
                                                                 
 dropout_30 (Dropout)        (None, 1024)              0         
                                                                 
 dense_41 (Dense)            (None, 512)               524800    
                                                                 
 dropout_31 (Dropout)        (None, 512)               0         
                                                                 
 dense_42 (Dense)            (None, 512)               262656    
                                                                 
 dropout_32 (Dropout)        (None, 512)               0         
                                                                 
 dense_43 (Dense)            (None, 24)                12312     
                                                                 
=================================================================
Total params: 1,066,008
Trainable params: 1,066,008
Non-trainable params: 0
_________________________________________________________________
Epoch 1/200
222/222 [==============================] - 2s 7ms/step - loss: 0.4066 - val_loss: 0.1103
Epoch 2/200
222/222 [==============================] - 1s 6ms/step - loss: 0.2208 - val_loss: 0.1042
…
shape x_training : (227236, 266)  y_training: :  (227236, 24)
shape x_test     :  (75735, 266)  y_test      :  (75735, 24)
shape x_val      :  (75735, 266)  y_val       :  (75735, 24)
=============================================================
(266,)
Model: "MLP"
_________________________________________________________________
 Layer (type)                Output Shape              Param #   
=================================================================
 input_12 (InputLayer)       [(None, 266)]             0         
                                                                 
 dense_44 (Dense)            (None, 1024)              273408    
                                                                 
 elu_11 (ELU)                (None, 1024)              0         
                                                                 
 dropout_33 (Dropout)        (None, 1024)              0         
                                                                 
 dense_45 (Dense)            (None, 512)               524800    
                                                                 
 dropout_34 (Dropout)        (None, 512)               0         
                                                                 
 dense_46 (Dense)            (None, 512)               262656    
                                                                 
 dropout_35 (Dropout)        (None, 512)               0         
                                                                 
 dense_47 (Dense)            (None, 24)                12312     
                                                                 
=================================================================
Total params: 1,073,176
Trainable params: 1,073,176
Non-trainable params: 0
_________________________________________________________________
Epoch 1/200
222/222 [==============================] - 2s 7ms/step - loss: 0.3979 - val_loss: 0.1100
Epoch 2/200
222/222 [==============================] - 1s 6ms/step - loss: 0.2185 - val_loss: 0.1025
…
shape x_training : (227235, 273)  y_training: :  (227235, 24)
shape x_test     :  (75734, 273)  y_test      :  (75734, 24)
shape x_val      :  (75735, 273)  y_val       :  (75735, 24)
=============================================================
(273,)
Model: "MLP"
_________________________________________________________________
 Layer (type)                Output Shape              Param #   
=================================================================
 input_13 (InputLayer)       [(None, 273)]             0         
                                                                 
 dense_48 (Dense)            (None, 1024)              280576    
                                                                 
 elu_12 (ELU)                (None, 1024)              0         
                                                                 
 dropout_36 (Dropout)        (None, 1024)              0         
                                                                 
 dense_49 (Dense)            (None, 512)               524800    
                                                                 
 dropout_37 (Dropout)        (None, 512)               0         
                                                                 
 dense_50 (Dense)            (None, 512)               262656    
                                                                 
 dropout_38 (Dropout)        (None, 512)               0         
                                                                 
 dense_51 (Dense)            (None, 24)                12312     
                                                                 
=================================================================
Total params: 1,080,344
Trainable params: 1,080,344
Non-trainable params: 0
_________________________________________________________________
Epoch 1/200
222/222 [==============================] - 2s 8ms/step - loss: 0.4061 - val_loss: 0.1091
Epoch 2/200
222/222 [==============================] - 1s 6ms/step - loss: 0.2206 - val_loss: 0.1026
…
shape x_training : (227234, 280)  y_training: :  (227234, 24)
shape x_test     :  (75734, 280)  y_test      :  (75734, 24)
shape x_val      :  (75734, 280)  y_val       :  (75734, 24)
=============================================================
(280,)
Model: "MLP"
_________________________________________________________________
 Layer (type)                Output Shape              Param #   
=================================================================
 input_14 (InputLayer)       [(None, 280)]             0         
                                                                 
 dense_52 (Dense)            (None, 1024)              287744    
                                                                 
 elu_13 (ELU)                (None, 1024)              0         
                                                                 
 dropout_39 (Dropout)        (None, 1024)              0         
                                                                 
 dense_53 (Dense)            (None, 512)               524800    
                                                                 
 dropout_40 (Dropout)        (None, 512)               0         
                                                                 
 dense_54 (Dense)            (None, 512)               262656    
                                                                 
 dropout_41 (Dropout)        (None, 512)               0         
                                                                 
 dense_55 (Dense)            (None, 24)                12312     
                                                                 
=================================================================
Total params: 1,087,512
Trainable params: 1,087,512
Non-trainable params: 0
_________________________________________________________________
Epoch 1/200
222/222 [==============================] - 2s 7ms/step - loss: 0.4066 - val_loss: 0.1082
Epoch 2/200
222/222 [==============================] - 1s 6ms/step - loss: 0.2216 - val_loss: 0.1009
…
shape x_training : (227233, 287)  y_training: :  (227233, 24)
shape x_test     :  (75733, 287)  y_test      :  (75733, 24)
shape x_val      :  (75734, 287)  y_val       :  (75734, 24)
=============================================================
(287,)
Model: "MLP"
_________________________________________________________________
 Layer (type)                Output Shape              Param #   
=================================================================
 input_15 (InputLayer)       [(None, 287)]             0         
                                                                 
 dense_56 (Dense)            (None, 1024)              294912    
                                                                 
 elu_14 (ELU)                (None, 1024)              0         
                                                                 
 dropout_42 (Dropout)        (None, 1024)              0         
                                                                 
 dense_57 (Dense)            (None, 512)               524800    
                                                                 
 dropout_43 (Dropout)        (None, 512)               0         
                                                                 
 dense_58 (Dense)            (None, 512)               262656    
                                                                 
 dropout_44 (Dropout)        (None, 512)               0         
                                                                 
 dense_59 (Dense)            (None, 24)                12312     
                                                                 
=================================================================
Total params: 1,094,680
Trainable params: 1,094,680
Non-trainable params: 0
_________________________________________________________________
Epoch 1/200
222/222 [==============================] - 2s 8ms/step - loss: 0.4067 - val_loss: 0.1099
Epoch 2/200
222/222 [==============================] - 1s 6ms/step - loss: 0.2220 - val_loss: 0.1006
…
shape x_training : (227232, 294)  y_training: :  (227232, 24)
shape x_test     :  (75733, 294)  y_test      :  (75733, 24)
shape x_val      :  (75733, 294)  y_val       :  (75733, 24)
=============================================================
(294,)
Model: "MLP"
_________________________________________________________________
 Layer (type)                Output Shape              Param #   
=================================================================
 input_16 (InputLayer)       [(None, 294)]             0         
                                                                 
 dense_60 (Dense)            (None, 1024)              302080    
                                                                 
 elu_15 (ELU)                (None, 1024)              0         
                                                                 
 dropout_45 (Dropout)        (None, 1024)              0         
                                                                 
 dense_61 (Dense)            (None, 512)               524800    
                                                                 
 dropout_46 (Dropout)        (None, 512)               0         
                                                                 
 dense_62 (Dense)            (None, 512)               262656    
                                                                 
 dropout_47 (Dropout)        (None, 512)               0         
                                                                 
 dense_63 (Dense)            (None, 24)                12312     
                                                                 
=================================================================
Total params: 1,101,848
Trainable params: 1,101,848
Non-trainable params: 0
_________________________________________________________________
Epoch 1/200
222/222 [==============================] - 2s 8ms/step - loss: 0.4123 - val_loss: 0.1081
Epoch 2/200
222/222 [==============================] - 1s 6ms/step - loss: 0.2234 - val_loss: 0.1010
…
shape x_training : (227231, 301)  y_training: :  (227231, 24)
shape x_test     :  (75732, 301)  y_test      :  (75732, 24)
shape x_val      :  (75733, 301)  y_val       :  (75733, 24)
=============================================================
(301,)
Model: "MLP"
_________________________________________________________________
 Layer (type)                Output Shape              Param #   
=================================================================
 input_17 (InputLayer)       [(None, 301)]             0         
                                                                 
 dense_64 (Dense)            (None, 1024)              309248    
                                                                 
 elu_16 (ELU)                (None, 1024)              0         
                                                                 
 dropout_48 (Dropout)        (None, 1024)              0         
                                                                 
 dense_65 (Dense)            (None, 512)               524800    
                                                                 
 dropout_49 (Dropout)        (None, 512)               0         
                                                                 
 dense_66 (Dense)            (None, 512)               262656    
                                                                 
 dropout_50 (Dropout)        (None, 512)               0         
                                                                 
 dense_67 (Dense)            (None, 24)                12312     
                                                                 
=================================================================
Total params: 1,109,016
Trainable params: 1,109,016
Non-trainable params: 0
_________________________________________________________________
Epoch 1/200
222/222 [==============================] - 2s 7ms/step - loss: 0.4126 - val_loss: 0.1118
Epoch 2/200
222/222 [==============================] - 1s 6ms/step - loss: 0.2235 - val_loss: 0.1015
…
shape x_training : (227230, 308)  y_training: :  (227230, 24)
shape x_test     :  (75732, 308)  y_test      :  (75732, 24)
shape x_val      :  (75732, 308)  y_val       :  (75732, 24)
=============================================================
(308,)
Model: "MLP"
_________________________________________________________________
 Layer (type)                Output Shape              Param #   
=================================================================
 input_18 (InputLayer)       [(None, 308)]             0         
                                                                 
 dense_68 (Dense)            (None, 1024)              316416    
                                                                 
 elu_17 (ELU)                (None, 1024)              0         
                                                                 
 dropout_51 (Dropout)        (None, 1024)              0         
                                                                 
 dense_69 (Dense)            (None, 512)               524800    
                                                                 
 dropout_52 (Dropout)        (None, 512)               0         
                                                                 
 dense_70 (Dense)            (None, 512)               262656    
                                                                 
 dropout_53 (Dropout)        (None, 512)               0         
                                                                 
 dense_71 (Dense)            (None, 24)                12312     
                                                                 
=================================================================
Total params: 1,116,184
Trainable params: 1,116,184
Non-trainable params: 0
_________________________________________________________________
Epoch 1/200
222/222 [==============================] - 2s 8ms/step - loss: 0.4122 - val_loss: 0.1108
Epoch 2/200
222/222 [==============================] - 1s 6ms/step - loss: 0.2246 - val_loss: 0.1026
…
shape x_training : (227229, 315)  y_training: :  (227229, 24)
shape x_test     :  (75731, 315)  y_test      :  (75731, 24)
shape x_val      :  (75732, 315)  y_val       :  (75732, 24)
=============================================================
(315,)
Model: "MLP"
_________________________________________________________________
 Layer (type)                Output Shape              Param #   
=================================================================
 input_19 (InputLayer)       [(None, 315)]             0         
                                                                 
 dense_72 (Dense)            (None, 1024)              323584    
                                                                 
 elu_18 (ELU)                (None, 1024)              0         
                                                                 
 dropout_54 (Dropout)        (None, 1024)              0         
                                                                 
 dense_73 (Dense)            (None, 512)               524800    
                                                                 
 dropout_55 (Dropout)        (None, 512)               0         
                                                                 
 dense_74 (Dense)            (None, 512)               262656    
                                                                 
 dropout_56 (Dropout)        (None, 512)               0         
                                                                 
 dense_75 (Dense)            (None, 24)                12312     
                                                                 
=================================================================
Total params: 1,123,352
Trainable params: 1,123,352
Non-trainable params: 0
_________________________________________________________________
Epoch 1/200
222/222 [==============================] - 2s 7ms/step - loss: 0.4248 - val_loss: 0.1107
Epoch 2/200
222/222 [==============================] - 1s 6ms/step - loss: 0.2265 - val_loss: 0.1014
…
shape x_training : (227228, 322)  y_training: :  (227228, 24)
shape x_test     :  (75731, 322)  y_test      :  (75731, 24)
shape x_val      :  (75731, 322)  y_val       :  (75731, 24)
=============================================================
(322,)
Model: "MLP"
_________________________________________________________________
 Layer (type)                Output Shape              Param #   
=================================================================
 input_20 (InputLayer)       [(None, 322)]             0         
                                                                 
 dense_76 (Dense)            (None, 1024)              330752    
                                                                 
 elu_19 (ELU)                (None, 1024)              0         
                                                                 
 dropout_57 (Dropout)        (None, 1024)              0         
                                                                 
 dense_77 (Dense)            (None, 512)               524800    
                                                                 
 dropout_58 (Dropout)        (None, 512)               0         
                                                                 
 dense_78 (Dense)            (None, 512)               262656    
                                                                 
 dropout_59 (Dropout)        (None, 512)               0         
                                                                 
 dense_79 (Dense)            (None, 24)                12312     
                                                                 
=================================================================
Total params: 1,130,520
Trainable params: 1,130,520
Non-trainable params: 0
_________________________________________________________________
Epoch 1/200
222/222 [==============================] - 2s 8ms/step - loss: 0.4220 - val_loss: 0.1119
Epoch 2/200
222/222 [==============================] - 1s 6ms/step - loss: 0.2267 - val_loss: 0.1018
…
shape x_training : (227227, 329)  y_training: :  (227227, 24)
shape x_test     :  (75730, 329)  y_test      :  (75730, 24)
shape x_val      :  (75731, 329)  y_val       :  (75731, 24)
=============================================================
(329,)
Model: "MLP"
_________________________________________________________________
 Layer (type)                Output Shape              Param #   
=================================================================
 input_21 (InputLayer)       [(None, 329)]             0         
                                                                 
 dense_80 (Dense)            (None, 1024)              337920    
                                                                 
 elu_20 (ELU)                (None, 1024)              0         
                                                                 
 dropout_60 (Dropout)        (None, 1024)              0         
                                                                 
 dense_81 (Dense)            (None, 512)               524800    
                                                                 
 dropout_61 (Dropout)        (None, 512)               0         
                                                                 
 dense_82 (Dense)            (None, 512)               262656    
                                                                 
 dropout_62 (Dropout)        (None, 512)               0         
                                                                 
 dense_83 (Dense)            (None, 24)                12312     
                                                                 
=================================================================
Total params: 1,137,688
Trainable params: 1,137,688
Non-trainable params: 0
_________________________________________________________________
Epoch 1/200
222/222 [==============================] - 2s 8ms/step - loss: 0.4158 - val_loss: 0.1109
Epoch 2/200
222/222 [==============================] - 1s 6ms/step - loss: 0.2258 - val_loss: 0.1012
…
shape x_training : (227226, 336)  y_training: :  (227226, 24)
shape x_test     :  (75730, 336)  y_test      :  (75730, 24)
shape x_val      :  (75730, 336)  y_val       :  (75730, 24)
=============================================================
(336,)
Model: "MLP"
_________________________________________________________________
 Layer (type)                Output Shape              Param #   
=================================================================
 input_22 (InputLayer)       [(None, 336)]             0         
                                                                 
 dense_84 (Dense)            (None, 1024)              345088    
                                                                 
 elu_21 (ELU)                (None, 1024)              0         
                                                                 
 dropout_63 (Dropout)        (None, 1024)              0         
                                                                 
 dense_85 (Dense)            (None, 512)               524800    
                                                                 
 dropout_64 (Dropout)        (None, 512)               0         
                                                                 
 dense_86 (Dense)            (None, 512)               262656    
                                                                 
 dropout_65 (Dropout)        (None, 512)               0         
                                                                 
 dense_87 (Dense)            (None, 24)                12312     
                                                                 
=================================================================
Total params: 1,144,856
Trainable params: 1,144,856
Non-trainable params: 0
_________________________________________________________________
Epoch 1/200
222/222 [==============================] - 2s 7ms/step - loss: 0.4328 - val_loss: 0.1111
Epoch 2/200
222/222 [==============================] - 1s 6ms/step - loss: 0.2283 - val_loss: 0.1028
…
shape x_training : (227225, 343)  y_training: :  (227225, 24)
shape x_test     :  (75729, 343)  y_test      :  (75729, 24)
shape x_val      :  (75730, 343)  y_val       :  (75730, 24)
=============================================================
(343,)
Model: "MLP"
_________________________________________________________________
 Layer (type)                Output Shape              Param #   
=================================================================
 input_23 (InputLayer)       [(None, 343)]             0         
                                                                 
 dense_88 (Dense)            (None, 1024)              352256    
                                                                 
 elu_22 (ELU)                (None, 1024)              0         
                                                                 
 dropout_66 (Dropout)        (None, 1024)              0         
                                                                 
 dense_89 (Dense)            (None, 512)               524800    
                                                                 
 dropout_67 (Dropout)        (None, 512)               0         
                                                                 
 dense_90 (Dense)            (None, 512)               262656    
                                                                 
 dropout_68 (Dropout)        (None, 512)               0         
                                                                 
 dense_91 (Dense)            (None, 24)                12312     
                                                                 
=================================================================
Total params: 1,152,024
Trainable params: 1,152,024
Non-trainable params: 0
_________________________________________________________________
Epoch 1/200
222/222 [==============================] - 2s 8ms/step - loss: 0.4270 - val_loss: 0.1134
Epoch 2/200
222/222 [==============================] - 1s 6ms/step - loss: 0.2285 - val_loss: 0.1040
…
shape x_training : (227224, 350)  y_training: :  (227224, 24)
shape x_test     :  (75729, 350)  y_test      :  (75729, 24)
shape x_val      :  (75729, 350)  y_val       :  (75729, 24)
=============================================================
(350,)
Model: "MLP"
_________________________________________________________________
 Layer (type)                Output Shape              Param #   
=================================================================
 input_24 (InputLayer)       [(None, 350)]             0         
                                                                 
 dense_92 (Dense)            (None, 1024)              359424    
                                                                 
 elu_23 (ELU)                (None, 1024)              0         
                                                                 
 dropout_69 (Dropout)        (None, 1024)              0         
                                                                 
 dense_93 (Dense)            (None, 512)               524800    
                                                                 
 dropout_70 (Dropout)        (None, 512)               0         
                                                                 
 dense_94 (Dense)            (None, 512)               262656    
                                                                 
 dropout_71 (Dropout)        (None, 512)               0         
                                                                 
 dense_95 (Dense)            (None, 24)                12312     
                                                                 
=================================================================
Total params: 1,159,192
Trainable params: 1,159,192
Non-trainable params: 0
_________________________________________________________________
Epoch 1/200
222/222 [==============================] - 2s 7ms/step - loss: 0.4255 - val_loss: 0.1110
Epoch 2/200
222/222 [==============================] - 1s 6ms/step - loss: 0.2281 - val_loss: 0.1017
…
shape x_training : (227223, 357)  y_training: :  (227223, 24)
shape x_test     :  (75728, 357)  y_test      :  (75728, 24)
shape x_val      :  (75729, 357)  y_val       :  (75729, 24)
=============================================================
(357,)
Model: "MLP"
_________________________________________________________________
 Layer (type)                Output Shape              Param #   
=================================================================
 input_25 (InputLayer)       [(None, 357)]             0         
                                                                 
 dense_96 (Dense)            (None, 1024)              366592    
                                                                 
 elu_24 (ELU)                (None, 1024)              0         
                                                                 
 dropout_72 (Dropout)        (None, 1024)              0         
                                                                 
 dense_97 (Dense)            (None, 512)               524800    
                                                                 
 dropout_73 (Dropout)        (None, 512)               0         
                                                                 
 dense_98 (Dense)            (None, 512)               262656    
                                                                 
 dropout_74 (Dropout)        (None, 512)               0         
                                                                 
 dense_99 (Dense)            (None, 24)                12312     
                                                                 
=================================================================
Total params: 1,166,360
Trainable params: 1,166,360
Non-trainable params: 0
_________________________________________________________________
Epoch 1/200
222/222 [==============================] - 2s 7ms/step - loss: 0.4337 - val_loss: 0.1110
Epoch 2/200
222/222 [==============================] - 1s 6ms/step - loss: 0.2303 - val_loss: 0.1029
…
shape x_training : (227222, 364)  y_training: :  (227222, 24)
shape x_test     :  (75728, 364)  y_test      :  (75728, 24)
shape x_val      :  (75728, 364)  y_val       :  (75728, 24)
=============================================================
(364,)
Model: "MLP"
_________________________________________________________________
 Layer (type)                Output Shape              Param #   
=================================================================
 input_26 (InputLayer)       [(None, 364)]             0         
                                                                 
 dense_100 (Dense)           (None, 1024)              373760    
                                                                 
 elu_25 (ELU)                (None, 1024)              0         
                                                                 
 dropout_75 (Dropout)        (None, 1024)              0         
                                                                 
 dense_101 (Dense)           (None, 512)               524800    
                                                                 
 dropout_76 (Dropout)        (None, 512)               0         
                                                                 
 dense_102 (Dense)           (None, 512)               262656    
                                                                 
 dropout_77 (Dropout)        (None, 512)               0         
                                                                 
 dense_103 (Dense)           (None, 24)                12312     
                                                                 
=================================================================
Total params: 1,173,528
Trainable params: 1,173,528
Non-trainable params: 0
_________________________________________________________________
Epoch 1/200
222/222 [==============================] - 2s 8ms/step - loss: 0.4360 - val_loss: 0.1115
Epoch 2/200
222/222 [==============================] - 1s 6ms/step - loss: 0.2311 - val_loss: 0.1045
…
shape x_training : (227221, 371)  y_training: :  (227221, 24)
shape x_test     :  (75727, 371)  y_test      :  (75727, 24)
shape x_val      :  (75728, 371)  y_val       :  (75728, 24)
=============================================================
(371,)
Model: "MLP"
_________________________________________________________________
 Layer (type)                Output Shape              Param #   
=================================================================
 input_27 (InputLayer)       [(None, 371)]             0         
                                                                 
 dense_104 (Dense)           (None, 1024)              380928    
                                                                 
 elu_26 (ELU)                (None, 1024)              0         
                                                                 
 dropout_78 (Dropout)        (None, 1024)              0         
                                                                 
 dense_105 (Dense)           (None, 512)               524800    
                                                                 
 dropout_79 (Dropout)        (None, 512)               0         
                                                                 
 dense_106 (Dense)           (None, 512)               262656    
                                                                 
 dropout_80 (Dropout)        (None, 512)               0         
                                                                 
 dense_107 (Dense)           (None, 24)                12312     
                                                                 
=================================================================
Total params: 1,180,696
Trainable params: 1,180,696
Non-trainable params: 0
_________________________________________________________________
Epoch 1/200
222/222 [==============================] - 2s 8ms/step - loss: 0.4382 - val_loss: 0.1118
Epoch 2/200
222/222 [==============================] - 1s 6ms/step - loss: 0.2324 - val_loss: 0.1074
…
shape x_training : (227220, 378)  y_training: :  (227220, 24)
shape x_test     :  (75727, 378)  y_test      :  (75727, 24)
shape x_val      :  (75727, 378)  y_val       :  (75727, 24)
=============================================================
(378,)
Model: "MLP"
_________________________________________________________________
 Layer (type)                Output Shape              Param #   
=================================================================
 input_28 (InputLayer)       [(None, 378)]             0         
                                                                 
 dense_108 (Dense)           (None, 1024)              388096    
                                                                 
 elu_27 (ELU)                (None, 1024)              0         
                                                                 
 dropout_81 (Dropout)        (None, 1024)              0         
                                                                 
 dense_109 (Dense)           (None, 512)               524800    
                                                                 
 dropout_82 (Dropout)        (None, 512)               0         
                                                                 
 dense_110 (Dense)           (None, 512)               262656    
                                                                 
 dropout_83 (Dropout)        (None, 512)               0         
                                                                 
 dense_111 (Dense)           (None, 24)                12312     
                                                                 
=================================================================
Total params: 1,187,864
Trainable params: 1,187,864
Non-trainable params: 0
_________________________________________________________________
Epoch 1/200
222/222 [==============================] - 2s 7ms/step - loss: 0.4402 - val_loss: 0.1118
Epoch 2/200
222/222 [==============================] - 1s 6ms/step - loss: 0.2327 - val_loss: 0.1025
…
shape x_training : (227219, 385)  y_training: :  (227219, 24)
shape x_test     :  (75726, 385)  y_test      :  (75726, 24)
shape x_val      :  (75727, 385)  y_val       :  (75727, 24)
=============================================================
(385,)
Model: "MLP"
_________________________________________________________________
 Layer (type)                Output Shape              Param #   
=================================================================
 input_29 (InputLayer)       [(None, 385)]             0         
                                                                 
 dense_112 (Dense)           (None, 1024)              395264    
                                                                 
 elu_28 (ELU)                (None, 1024)              0         
                                                                 
 dropout_84 (Dropout)        (None, 1024)              0         
                                                                 
 dense_113 (Dense)           (None, 512)               524800    
                                                                 
 dropout_85 (Dropout)        (None, 512)               0         
                                                                 
 dense_114 (Dense)           (None, 512)               262656    
                                                                 
 dropout_86 (Dropout)        (None, 512)               0         
                                                                 
 dense_115 (Dense)           (None, 24)                12312     
                                                                 
=================================================================
Total params: 1,195,032
Trainable params: 1,195,032
Non-trainable params: 0
_________________________________________________________________
Epoch 1/200
222/222 [==============================] - 2s 8ms/step - loss: 0.4424 - val_loss: 0.1127
Epoch 2/200
222/222 [==============================] - 1s 6ms/step - loss: 0.2334 - val_loss: 0.1045
…
shape x_training : (227218, 392)  y_training: :  (227218, 24)
shape x_test     :  (75726, 392)  y_test      :  (75726, 24)
shape x_val      :  (75726, 392)  y_val       :  (75726, 24)
=============================================================
(392,)
Model: "MLP"
_________________________________________________________________
 Layer (type)                Output Shape              Param #   
=================================================================
 input_30 (InputLayer)       [(None, 392)]             0         
                                                                 
 dense_116 (Dense)           (None, 1024)              402432    
                                                                 
 elu_29 (ELU)                (None, 1024)              0         
                                                                 
 dropout_87 (Dropout)        (None, 1024)              0         
                                                                 
 dense_117 (Dense)           (None, 512)               524800    
                                                                 
 dropout_88 (Dropout)        (None, 512)               0         
                                                                 
 dense_118 (Dense)           (None, 512)               262656    
                                                                 
 dropout_89 (Dropout)        (None, 512)               0         
                                                                 
 dense_119 (Dense)           (None, 24)                12312     
                                                                 
=================================================================
Total params: 1,202,200
Trainable params: 1,202,200
Non-trainable params: 0
_________________________________________________________________
Epoch 1/200
222/222 [==============================] - 2s 8ms/step - loss: 0.4393 - val_loss: 0.1116
Epoch 2/200
222/222 [==============================] - 1s 6ms/step - loss: 0.2338 - val_loss: 0.1038
…
shape x_training : (227217, 399)  y_training: :  (227217, 24)
shape x_test     :  (75725, 399)  y_test      :  (75725, 24)
shape x_val      :  (75726, 399)  y_val       :  (75726, 24)
=============================================================
(399,)
Model: "MLP"
_________________________________________________________________
 Layer (type)                Output Shape              Param #   
=================================================================
 input_31 (InputLayer)       [(None, 399)]             0         
                                                                 
 dense_120 (Dense)           (None, 1024)              409600    
                                                                 
 elu_30 (ELU)                (None, 1024)              0         
                                                                 
 dropout_90 (Dropout)        (None, 1024)              0         
                                                                 
 dense_121 (Dense)           (None, 512)               524800    
                                                                 
 dropout_91 (Dropout)        (None, 512)               0         
                                                                 
 dense_122 (Dense)           (None, 512)               262656    
                                                                 
 dropout_92 (Dropout)        (None, 512)               0         
                                                                 
 dense_123 (Dense)           (None, 24)                12312     
                                                                 
=================================================================
Total params: 1,209,368
Trainable params: 1,209,368
Non-trainable params: 0
_________________________________________________________________
Epoch 1/200
222/222 [==============================] - 2s 8ms/step - loss: 0.4445 - val_loss: 0.1138
Epoch 2/200
222/222 [==============================] - 1s 6ms/step - loss: 0.2342 - val_loss: 0.1035
…
shape x_training : (227216, 406)  y_training: :  (227216, 24)
shape x_test     :  (75725, 406)  y_test      :  (75725, 24)
shape x_val      :  (75725, 406)  y_val       :  (75725, 24)
=============================================================
(406,)
Model: "MLP"
_________________________________________________________________
 Layer (type)                Output Shape              Param #   
=================================================================
 input_32 (InputLayer)       [(None, 406)]             0         
                                                                 
 dense_124 (Dense)           (None, 1024)              416768    
                                                                 
 elu_31 (ELU)                (None, 1024)              0         
                                                                 
 dropout_93 (Dropout)        (None, 1024)              0         
                                                                 
 dense_125 (Dense)           (None, 512)               524800    
                                                                 
 dropout_94 (Dropout)        (None, 512)               0         
                                                                 
 dense_126 (Dense)           (None, 512)               262656    
                                                                 
 dropout_95 (Dropout)        (None, 512)               0         
                                                                 
 dense_127 (Dense)           (None, 24)                12312     
                                                                 
=================================================================
Total params: 1,216,536
Trainable params: 1,216,536
Non-trainable params: 0
_________________________________________________________________
Epoch 1/200
222/222 [==============================] - 2s 7ms/step - loss: 0.4426 - val_loss: 0.1122
Epoch 2/200
222/222 [==============================] - 1s 6ms/step - loss: 0.2338 - val_loss: 0.1033
…
shape x_training : (227215, 413)  y_training: :  (227215, 24)
shape x_test     :  (75724, 413)  y_test      :  (75724, 24)
shape x_val      :  (75725, 413)  y_val       :  (75725, 24)
=============================================================
(413,)
Model: "MLP"
_________________________________________________________________
 Layer (type)                Output Shape              Param #   
=================================================================
 input_33 (InputLayer)       [(None, 413)]             0         
                                                                 
 dense_128 (Dense)           (None, 1024)              423936    
                                                                 
 elu_32 (ELU)                (None, 1024)              0         
                                                                 
 dropout_96 (Dropout)        (None, 1024)              0         
                                                                 
 dense_129 (Dense)           (None, 512)               524800    
                                                                 
 dropout_97 (Dropout)        (None, 512)               0         
                                                                 
 dense_130 (Dense)           (None, 512)               262656    
                                                                 
 dropout_98 (Dropout)        (None, 512)               0         
                                                                 
 dense_131 (Dense)           (None, 24)                12312     
                                                                 
=================================================================
Total params: 1,223,704
Trainable params: 1,223,704
Non-trainable params: 0
_________________________________________________________________
Epoch 1/200
222/222 [==============================] - 2s 8ms/step - loss: 0.4591 - val_loss: 0.1118
Epoch 2/200
222/222 [==============================] - 1s 6ms/step - loss: 0.2372 - val_loss: 0.1023
…
shape x_training : (227214, 420)  y_training: :  (227214, 24)
shape x_test     :  (75724, 420)  y_test      :  (75724, 24)
shape x_val      :  (75724, 420)  y_val       :  (75724, 24)
=============================================================
(420,)
Model: "MLP"
_________________________________________________________________
 Layer (type)                Output Shape              Param #   
=================================================================
 input_34 (InputLayer)       [(None, 420)]             0         
                                                                 
 dense_132 (Dense)           (None, 1024)              431104    
                                                                 
 elu_33 (ELU)                (None, 1024)              0         
                                                                 
 dropout_99 (Dropout)        (None, 1024)              0         
                                                                 
 dense_133 (Dense)           (None, 512)               524800    
                                                                 
 dropout_100 (Dropout)       (None, 512)               0         
                                                                 
 dense_134 (Dense)           (None, 512)               262656    
                                                                 
 dropout_101 (Dropout)       (None, 512)               0         
                                                                 
 dense_135 (Dense)           (None, 24)                12312     
                                                                 
=================================================================
Total params: 1,230,872
Trainable params: 1,230,872
Non-trainable params: 0
_________________________________________________________________
Epoch 1/200
222/222 [==============================] - 2s 6ms/step - loss: 0.4430 - val_loss: 0.1120
Epoch 2/200
222/222 [==============================] - 1s 6ms/step - loss: 0.2351 - val_loss: 0.1027
…
shape x_training : (227213, 427)  y_training: :  (227213, 24)
shape x_test     :  (75723, 427)  y_test      :  (75723, 24)
shape x_val      :  (75724, 427)  y_val       :  (75724, 24)
=============================================================
(427,)
Model: "MLP"
_________________________________________________________________
 Layer (type)                Output Shape              Param #   
=================================================================
 input_35 (InputLayer)       [(None, 427)]             0         
                                                                 
 dense_136 (Dense)           (None, 1024)              438272    
                                                                 
 elu_34 (ELU)                (None, 1024)              0         
                                                                 
 dropout_102 (Dropout)       (None, 1024)              0         
                                                                 
 dense_137 (Dense)           (None, 512)               524800    
                                                                 
 dropout_103 (Dropout)       (None, 512)               0         
                                                                 
 dense_138 (Dense)           (None, 512)               262656    
                                                                 
 dropout_104 (Dropout)       (None, 512)               0         
                                                                 
 dense_139 (Dense)           (None, 24)                12312     
                                                                 
=================================================================
Total params: 1,238,040
Trainable params: 1,238,040
Non-trainable params: 0
_________________________________________________________________
Epoch 1/200
222/222 [==============================] - 2s 7ms/step - loss: 0.4501 - val_loss: 0.1119
Epoch 2/200
222/222 [==============================] - 1s 6ms/step - loss: 0.2353 - val_loss: 0.1034
…
shape x_training : (227212, 434)  y_training: :  (227212, 24)
shape x_test     :  (75723, 434)  y_test      :  (75723, 24)
shape x_val      :  (75723, 434)  y_val       :  (75723, 24)
=============================================================
(434,)
Model: "MLP"
_________________________________________________________________
 Layer (type)                Output Shape              Param #   
=================================================================
 input_36 (InputLayer)       [(None, 434)]             0         
                                                                 
 dense_140 (Dense)           (None, 1024)              445440    
                                                                 
 elu_35 (ELU)                (None, 1024)              0         
                                                                 
 dropout_105 (Dropout)       (None, 1024)              0         
                                                                 
 dense_141 (Dense)           (None, 512)               524800    
                                                                 
 dropout_106 (Dropout)       (None, 512)               0         
                                                                 
 dense_142 (Dense)           (None, 512)               262656    
                                                                 
 dropout_107 (Dropout)       (None, 512)               0         
                                                                 
 dense_143 (Dense)           (None, 24)                12312     
                                                                 
=================================================================
Total params: 1,245,208
Trainable params: 1,245,208
Non-trainable params: 0
_________________________________________________________________
Epoch 1/200
222/222 [==============================] - 2s 7ms/step - loss: 0.4457 - val_loss: 0.1125
Epoch 2/200
222/222 [==============================] - 1s 6ms/step - loss: 0.2355 - val_loss: 0.1026
…
shape x_training : (227211, 441)  y_training: :  (227211, 24)
shape x_test     :  (75722, 441)  y_test      :  (75722, 24)
shape x_val      :  (75723, 441)  y_val       :  (75723, 24)
=============================================================
(441,)
Model: "MLP"
_________________________________________________________________
 Layer (type)                Output Shape              Param #   
=================================================================
 input_37 (InputLayer)       [(None, 441)]             0         
                                                                 
 dense_144 (Dense)           (None, 1024)              452608    
                                                                 
 elu_36 (ELU)                (None, 1024)              0         
                                                                 
 dropout_108 (Dropout)       (None, 1024)              0         
                                                                 
 dense_145 (Dense)           (None, 512)               524800    
                                                                 
 dropout_109 (Dropout)       (None, 512)               0         
                                                                 
 dense_146 (Dense)           (None, 512)               262656    
                                                                 
 dropout_110 (Dropout)       (None, 512)               0         
                                                                 
 dense_147 (Dense)           (None, 24)                12312     
                                                                 
=================================================================
Total params: 1,252,376
Trainable params: 1,252,376
Non-trainable params: 0
_________________________________________________________________
Epoch 1/200
222/222 [==============================] - 2s 8ms/step - loss: 0.4612 - val_loss: 0.1120
Epoch 2/200
222/222 [==============================] - 1s 6ms/step - loss: 0.2393 - val_loss: 0.1027
…
shape x_training : (227210, 448)  y_training: :  (227210, 24)
shape x_test     :  (75722, 448)  y_test      :  (75722, 24)
shape x_val      :  (75722, 448)  y_val       :  (75722, 24)
=============================================================
(448,)
Model: "MLP"
_________________________________________________________________
 Layer (type)                Output Shape              Param #   
=================================================================
 input_38 (InputLayer)       [(None, 448)]             0         
                                                                 
 dense_148 (Dense)           (None, 1024)              459776    
                                                                 
 elu_37 (ELU)                (None, 1024)              0         
                                                                 
 dropout_111 (Dropout)       (None, 1024)              0         
                                                                 
 dense_149 (Dense)           (None, 512)               524800    
                                                                 
 dropout_112 (Dropout)       (None, 512)               0         
                                                                 
 dense_150 (Dense)           (None, 512)               262656    
                                                                 
 dropout_113 (Dropout)       (None, 512)               0         
                                                                 
 dense_151 (Dense)           (None, 24)                12312     
                                                                 
=================================================================
Total params: 1,259,544
Trainable params: 1,259,544
Non-trainable params: 0
_________________________________________________________________
Epoch 1/200
222/222 [==============================] - 2s 7ms/step - loss: 0.4595 - val_loss: 0.1112
Epoch 2/200
222/222 [==============================] - 1s 6ms/step - loss: 0.2387 - val_loss: 0.1022
…
shape x_training : (227209, 455)  y_training: :  (227209, 24)
shape x_test     :  (75721, 455)  y_test      :  (75721, 24)
shape x_val      :  (75722, 455)  y_val       :  (75722, 24)
=============================================================
(455,)
Model: "MLP"
_________________________________________________________________
 Layer (type)                Output Shape              Param #   
=================================================================
 input_39 (InputLayer)       [(None, 455)]             0         
                                                                 
 dense_152 (Dense)           (None, 1024)              466944    
                                                                 
 elu_38 (ELU)                (None, 1024)              0         
                                                                 
 dropout_114 (Dropout)       (None, 1024)              0         
                                                                 
 dense_153 (Dense)           (None, 512)               524800    
                                                                 
 dropout_115 (Dropout)       (None, 512)               0         
                                                                 
 dense_154 (Dense)           (None, 512)               262656    
                                                                 
 dropout_116 (Dropout)       (None, 512)               0         
                                                                 
 dense_155 (Dense)           (None, 24)                12312     
                                                                 
=================================================================
Total params: 1,266,712
Trainable params: 1,266,712
Non-trainable params: 0
_________________________________________________________________
Epoch 1/200
222/222 [==============================] - 2s 8ms/step - loss: 0.4555 - val_loss: 0.1133
Epoch 2/200
222/222 [==============================] - 1s 7ms/step - loss: 0.2386 - val_loss: 0.1021
…
shape x_training : (227208, 462)  y_training: :  (227208, 24)
shape x_test     :  (75721, 462)  y_test      :  (75721, 24)
shape x_val      :  (75721, 462)  y_val       :  (75721, 24)
=============================================================
(462,)
Model: "MLP"
_________________________________________________________________
 Layer (type)                Output Shape              Param #   
=================================================================
 input_40 (InputLayer)       [(None, 462)]             0         
                                                                 
 dense_156 (Dense)           (None, 1024)              474112    
                                                                 
 elu_39 (ELU)                (None, 1024)              0         
                                                                 
 dropout_117 (Dropout)       (None, 1024)              0         
                                                                 
 dense_157 (Dense)           (None, 512)               524800    
                                                                 
 dropout_118 (Dropout)       (None, 512)               0         
                                                                 
 dense_158 (Dense)           (None, 512)               262656    
                                                                 
 dropout_119 (Dropout)       (None, 512)               0         
                                                                 
 dense_159 (Dense)           (None, 24)                12312     
                                                                 
=================================================================
Total params: 1,273,880
Trainable params: 1,273,880
Non-trainable params: 0
_________________________________________________________________
Epoch 1/200
222/222 [==============================] - 2s 8ms/step - loss: 0.4571 - val_loss: 0.1137
Epoch 2/200
222/222 [==============================] - 1s 6ms/step - loss: 0.2385 - val_loss: 0.1054
…
shape x_training : (227207, 469)  y_training: :  (227207, 24)
shape x_test     :  (75720, 469)  y_test      :  (75720, 24)
shape x_val      :  (75721, 469)  y_val       :  (75721, 24)
=============================================================
(469,)
Model: "MLP"
_________________________________________________________________
 Layer (type)                Output Shape              Param #   
=================================================================
 input_41 (InputLayer)       [(None, 469)]             0         
                                                                 
 dense_160 (Dense)           (None, 1024)              481280    
                                                                 
 elu_40 (ELU)                (None, 1024)              0         
                                                                 
 dropout_120 (Dropout)       (None, 1024)              0         
                                                                 
 dense_161 (Dense)           (None, 512)               524800    
                                                                 
 dropout_121 (Dropout)       (None, 512)               0         
                                                                 
 dense_162 (Dense)           (None, 512)               262656    
                                                                 
 dropout_122 (Dropout)       (None, 512)               0         
                                                                 
 dense_163 (Dense)           (None, 24)                12312     
                                                                 
=================================================================
Total params: 1,281,048
Trainable params: 1,281,048
Non-trainable params: 0
_________________________________________________________________
Epoch 1/200
222/222 [==============================] - 2s 8ms/step - loss: 0.4586 - val_loss: 0.1133
Epoch 2/200
222/222 [==============================] - 1s 6ms/step - loss: 0.2397 - val_loss: 0.1025
…
shape x_training : (227206, 476)  y_training: :  (227206, 24)
shape x_test     :  (75720, 476)  y_test      :  (75720, 24)
shape x_val      :  (75720, 476)  y_val       :  (75720, 24)
=============================================================
(476,)
Model: "MLP"
_________________________________________________________________
 Layer (type)                Output Shape              Param #   
=================================================================
 input_42 (InputLayer)       [(None, 476)]             0         
                                                                 
 dense_164 (Dense)           (None, 1024)              488448    
                                                                 
 elu_41 (ELU)                (None, 1024)              0         
                                                                 
 dropout_123 (Dropout)       (None, 1024)              0         
                                                                 
 dense_165 (Dense)           (None, 512)               524800    
                                                                 
 dropout_124 (Dropout)       (None, 512)               0         
                                                                 
 dense_166 (Dense)           (None, 512)               262656    
                                                                 
 dropout_125 (Dropout)       (None, 512)               0         
                                                                 
 dense_167 (Dense)           (None, 24)                12312     
                                                                 
=================================================================
Total params: 1,288,216
Trainable params: 1,288,216
Non-trainable params: 0
_________________________________________________________________
Epoch 1/200
222/222 [==============================] - 2s 7ms/step - loss: 0.4609 - val_loss: 0.1120
Epoch 2/200
222/222 [==============================] - 1s 6ms/step - loss: 0.2401 - val_loss: 0.1025
…
shape x_training : (227205, 483)  y_training: :  (227205, 24)
shape x_test     :  (75719, 483)  y_test      :  (75719, 24)
shape x_val      :  (75720, 483)  y_val       :  (75720, 24)
=============================================================
(483,)
Model: "MLP"
_________________________________________________________________
 Layer (type)                Output Shape              Param #   
=================================================================
 input_43 (InputLayer)       [(None, 483)]             0         
                                                                 
 dense_168 (Dense)           (None, 1024)              495616    
                                                                 
 elu_42 (ELU)                (None, 1024)              0         
                                                                 
 dropout_126 (Dropout)       (None, 1024)              0         
                                                                 
 dense_169 (Dense)           (None, 512)               524800    
                                                                 
 dropout_127 (Dropout)       (None, 512)               0         
                                                                 
 dense_170 (Dense)           (None, 512)               262656    
                                                                 
 dropout_128 (Dropout)       (None, 512)               0         
                                                                 
 dense_171 (Dense)           (None, 24)                12312     
                                                                 
=================================================================
Total params: 1,295,384
Trainable params: 1,295,384
Non-trainable params: 0
_________________________________________________________________
Epoch 1/200
222/222 [==============================] - 2s 8ms/step - loss: 0.4691 - val_loss: 0.1142
Epoch 2/200
222/222 [==============================] - 1s 6ms/step - loss: 0.2428 - val_loss: 0.1053
…
shape x_training : (227204, 490)  y_training: :  (227204, 24)
shape x_test     :  (75719, 490)  y_test      :  (75719, 24)
shape x_val      :  (75719, 490)  y_val       :  (75719, 24)
=============================================================
(490,)
Model: "MLP"
_________________________________________________________________
 Layer (type)                Output Shape              Param #   
=================================================================
 input_44 (InputLayer)       [(None, 490)]             0         
                                                                 
 dense_172 (Dense)           (None, 1024)              502784    
                                                                 
 elu_43 (ELU)                (None, 1024)              0         
                                                                 
 dropout_129 (Dropout)       (None, 1024)              0         
                                                                 
 dense_173 (Dense)           (None, 512)               524800    
                                                                 
 dropout_130 (Dropout)       (None, 512)               0         
                                                                 
 dense_174 (Dense)           (None, 512)               262656    
                                                                 
 dropout_131 (Dropout)       (None, 512)               0         
                                                                 
 dense_175 (Dense)           (None, 24)                12312     
                                                                 
=================================================================
Total params: 1,302,552
Trainable params: 1,302,552
Non-trainable params: 0
_________________________________________________________________
Epoch 1/200
222/222 [==============================] - 2s 8ms/step - loss: 0.4674 - val_loss: 0.1164
Epoch 2/200
222/222 [==============================] - 1s 7ms/step - loss: 0.2417 - val_loss: 0.1047
…
shape x_training : (227203, 497)  y_training: :  (227203, 24)
shape x_test     :  (75718, 497)  y_test      :  (75718, 24)
shape x_val      :  (75719, 497)  y_val       :  (75719, 24)
=============================================================
(497,)
Model: "MLP"
_________________________________________________________________
 Layer (type)                Output Shape              Param #   
=================================================================
 input_45 (InputLayer)       [(None, 497)]             0         
                                                                 
 dense_176 (Dense)           (None, 1024)              509952    
                                                                 
 elu_44 (ELU)                (None, 1024)              0         
                                                                 
 dropout_132 (Dropout)       (None, 1024)              0         
                                                                 
 dense_177 (Dense)           (None, 512)               524800    
                                                                 
 dropout_133 (Dropout)       (None, 512)               0         
                                                                 
 dense_178 (Dense)           (None, 512)               262656    
                                                                 
 dropout_134 (Dropout)       (None, 512)               0         
                                                                 
 dense_179 (Dense)           (None, 24)                12312     
                                                                 
=================================================================
Total params: 1,309,720
Trainable params: 1,309,720
Non-trainable params: 0
_________________________________________________________________
Epoch 1/200
222/222 [==============================] - 2s 7ms/step - loss: 0.4744 - val_loss: 0.1146
Epoch 2/200
222/222 [==============================] - 1s 6ms/step - loss: 0.2435 - val_loss: 0.1063
…
shape x_training : (227202, 504)  y_training: :  (227202, 24)
shape x_test     :  (75718, 504)  y_test      :  (75718, 24)
shape x_val      :  (75718, 504)  y_val       :  (75718, 24)
=============================================================
(504,)
Model: "MLP"
_________________________________________________________________
 Layer (type)                Output Shape              Param #   
=================================================================
 input_46 (InputLayer)       [(None, 504)]             0         
                                                                 
 dense_180 (Dense)           (None, 1024)              517120    
                                                                 
 elu_45 (ELU)                (None, 1024)              0         
                                                                 
 dropout_135 (Dropout)       (None, 1024)              0         
                                                                 
 dense_181 (Dense)           (None, 512)               524800    
                                                                 
 dropout_136 (Dropout)       (None, 512)               0         
                                                                 
 dense_182 (Dense)           (None, 512)               262656    
                                                                 
 dropout_137 (Dropout)       (None, 512)               0         
                                                                 
 dense_183 (Dense)           (None, 24)                12312     
                                                                 
=================================================================
Total params: 1,316,888
Trainable params: 1,316,888
Non-trainable params: 0
_________________________________________________________________
Epoch 1/200
222/222 [==============================] - 2s 8ms/step - loss: 0.4684 - val_loss: 0.1145
Epoch 2/200
222/222 [==============================] - 1s 6ms/step - loss: 0.2428 - val_loss: 0.1030
…
shape x_training : (227201, 511)  y_training: :  (227201, 24)
shape x_test     :  (75717, 511)  y_test      :  (75717, 24)
shape x_val      :  (75718, 511)  y_val       :  (75718, 24)
=============================================================
(511,)
Model: "MLP"
_________________________________________________________________
 Layer (type)                Output Shape              Param #   
=================================================================
 input_47 (InputLayer)       [(None, 511)]             0         
                                                                 
 dense_184 (Dense)           (None, 1024)              524288    
                                                                 
 elu_46 (ELU)                (None, 1024)              0         
                                                                 
 dropout_138 (Dropout)       (None, 1024)              0         
                                                                 
 dense_185 (Dense)           (None, 512)               524800    
                                                                 
 dropout_139 (Dropout)       (None, 512)               0         
                                                                 
 dense_186 (Dense)           (None, 512)               262656    
                                                                 
 dropout_140 (Dropout)       (None, 512)               0         
                                                                 
 dense_187 (Dense)           (None, 24)                12312     
                                                                 
=================================================================
Total params: 1,324,056
Trainable params: 1,324,056
Non-trainable params: 0
_________________________________________________________________
Epoch 1/200
222/222 [==============================] - 2s 8ms/step - loss: 0.4638 - val_loss: 0.1132
Epoch 2/200
222/222 [==============================] - 1s 6ms/step - loss: 0.2418 - val_loss: 0.1035
…
shape x_training : (227200, 518)  y_training: :  (227200, 24)
shape x_test     :  (75717, 518)  y_test      :  (75717, 24)
shape x_val      :  (75717, 518)  y_val       :  (75717, 24)
=============================================================
(518,)
Model: "MLP"
_________________________________________________________________
 Layer (type)                Output Shape              Param #   
=================================================================
 input_48 (InputLayer)       [(None, 518)]             0         
                                                                 
 dense_188 (Dense)           (None, 1024)              531456    
                                                                 
 elu_47 (ELU)                (None, 1024)              0         
                                                                 
 dropout_141 (Dropout)       (None, 1024)              0         
                                                                 
 dense_189 (Dense)           (None, 512)               524800    
                                                                 
 dropout_142 (Dropout)       (None, 512)               0         
                                                                 
 dense_190 (Dense)           (None, 512)               262656    
                                                                 
 dropout_143 (Dropout)       (None, 512)               0         
                                                                 
 dense_191 (Dense)           (None, 24)                12312     
                                                                 
=================================================================
Total params: 1,331,224
Trainable params: 1,331,224
Non-trainable params: 0
_________________________________________________________________
Epoch 1/200
222/222 [==============================] - 2s 8ms/step - loss: 0.4784 - val_loss: 0.1152
Epoch 2/200
222/222 [==============================] - 1s 6ms/step - loss: 0.2452 - val_loss: 0.1048
…
shape x_training : (227199, 525)  y_training: :  (227199, 24)
shape x_test     :  (75716, 525)  y_test      :  (75716, 24)
shape x_val      :  (75717, 525)  y_val       :  (75717, 24)
=============================================================
(525,)
Model: "MLP"
_________________________________________________________________
 Layer (type)                Output Shape              Param #   
=================================================================
 input_49 (InputLayer)       [(None, 525)]             0         
                                                                 
 dense_192 (Dense)           (None, 1024)              538624    
                                                                 
 elu_48 (ELU)                (None, 1024)              0         
                                                                 
 dropout_144 (Dropout)       (None, 1024)              0         
                                                                 
 dense_193 (Dense)           (None, 512)               524800    
                                                                 
 dropout_145 (Dropout)       (None, 512)               0         
                                                                 
 dense_194 (Dense)           (None, 512)               262656    
                                                                 
 dropout_146 (Dropout)       (None, 512)               0         
                                                                 
 dense_195 (Dense)           (None, 24)                12312     
                                                                 
=================================================================
Total params: 1,338,392
Trainable params: 1,338,392
Non-trainable params: 0
_________________________________________________________________
Epoch 1/200
222/222 [==============================] - 2s 7ms/step - loss: 0.4671 - val_loss: 0.1161
Epoch 2/200
222/222 [==============================] - 1s 6ms/step - loss: 0.2429 - val_loss: 0.1020
…
shape x_training : (227198, 532)  y_training: :  (227198, 24)
shape x_test     :  (75716, 532)  y_test      :  (75716, 24)
shape x_val      :  (75716, 532)  y_val       :  (75716, 24)
=============================================================
(532,)
Model: "MLP"
_________________________________________________________________
 Layer (type)                Output Shape              Param #   
=================================================================
 input_50 (InputLayer)       [(None, 532)]             0         
                                                                 
 dense_196 (Dense)           (None, 1024)              545792    
                                                                 
 elu_49 (ELU)                (None, 1024)              0         
                                                                 
 dropout_147 (Dropout)       (None, 1024)              0         
                                                                 
 dense_197 (Dense)           (None, 512)               524800    
                                                                 
 dropout_148 (Dropout)       (None, 512)               0         
                                                                 
 dense_198 (Dense)           (None, 512)               262656    
                                                                 
 dropout_149 (Dropout)       (None, 512)               0         
                                                                 
 dense_199 (Dense)           (None, 24)                12312     
                                                                 
=================================================================
Total params: 1,345,560
Trainable params: 1,345,560
Non-trainable params: 0
_________________________________________________________________
Epoch 1/200
222/222 [==============================] - 2s 7ms/step - loss: 0.4728 - val_loss: 0.1124
Epoch 2/200
222/222 [==============================] - 1s 6ms/step - loss: 0.2446 - val_loss: 0.1024
…
shape x_training : (227197, 539)  y_training: :  (227197, 24)
shape x_test     :  (75715, 539)  y_test      :  (75715, 24)
shape x_val      :  (75716, 539)  y_val       :  (75716, 24)
=============================================================
(539,)
Model: "MLP"
_________________________________________________________________
 Layer (type)                Output Shape              Param #   
=================================================================
 input_51 (InputLayer)       [(None, 539)]             0         
                                                                 
 dense_200 (Dense)           (None, 1024)              552960    
                                                                 
 elu_50 (ELU)                (None, 1024)              0         
                                                                 
 dropout_150 (Dropout)       (None, 1024)              0         
                                                                 
 dense_201 (Dense)           (None, 512)               524800    
                                                                 
 dropout_151 (Dropout)       (None, 512)               0         
                                                                 
 dense_202 (Dense)           (None, 512)               262656    
                                                                 
 dropout_152 (Dropout)       (None, 512)               0         
                                                                 
 dense_203 (Dense)           (None, 24)                12312     
                                                                 
=================================================================
Total params: 1,352,728
Trainable params: 1,352,728
Non-trainable params: 0
_________________________________________________________________
Epoch 1/200
222/222 [==============================] - 2s 8ms/step - loss: 0.4784 - val_loss: 0.1133
Epoch 2/200
222/222 [==============================] - 1s 6ms/step - loss: 0.2456 - val_loss: 0.1023
…
shape x_training : (227196, 546)  y_training: :  (227196, 24)
shape x_test     :  (75715, 546)  y_test      :  (75715, 24)
shape x_val      :  (75715, 546)  y_val       :  (75715, 24)
=============================================================
(546,)
Model: "MLP"
_________________________________________________________________
 Layer (type)                Output Shape              Param #   
=================================================================
 input_52 (InputLayer)       [(None, 546)]             0         
                                                                 
 dense_204 (Dense)           (None, 1024)              560128    
                                                                 
 elu_51 (ELU)                (None, 1024)              0         
                                                                 
 dropout_153 (Dropout)       (None, 1024)              0         
                                                                 
 dense_205 (Dense)           (None, 512)               524800    
                                                                 
 dropout_154 (Dropout)       (None, 512)               0         
                                                                 
 dense_206 (Dense)           (None, 512)               262656    
                                                                 
 dropout_155 (Dropout)       (None, 512)               0         
                                                                 
 dense_207 (Dense)           (None, 24)                12312     
                                                                 
=================================================================
Total params: 1,359,896
Trainable params: 1,359,896
Non-trainable params: 0
_________________________________________________________________
Epoch 1/200
222/222 [==============================] - 2s 7ms/step - loss: 0.4748 - val_loss: 0.1124
Epoch 2/200
222/222 [==============================] - 1s 6ms/step - loss: 0.2453 - val_loss: 0.1048
…
shape x_training : (227195, 553)  y_training: :  (227195, 24)
shape x_test     :  (75714, 553)  y_test      :  (75714, 24)
shape x_val      :  (75715, 553)  y_val       :  (75715, 24)
=============================================================
(553,)
Model: "MLP"
_________________________________________________________________
 Layer (type)                Output Shape              Param #   
=================================================================
 input_53 (InputLayer)       [(None, 553)]             0         
                                                                 
 dense_208 (Dense)           (None, 1024)              567296    
                                                                 
 elu_52 (ELU)                (None, 1024)              0         
                                                                 
 dropout_156 (Dropout)       (None, 1024)              0         
                                                                 
 dense_209 (Dense)           (None, 512)               524800    
                                                                 
 dropout_157 (Dropout)       (None, 512)               0         
                                                                 
 dense_210 (Dense)           (None, 512)               262656    
                                                                 
 dropout_158 (Dropout)       (None, 512)               0         
                                                                 
 dense_211 (Dense)           (None, 24)                12312     
                                                                 
=================================================================
Total params: 1,367,064
Trainable params: 1,367,064
Non-trainable params: 0
_________________________________________________________________
Epoch 1/200
222/222 [==============================] - 2s 7ms/step - loss: 0.4775 - val_loss: 0.1122
Epoch 2/200
222/222 [==============================] - 1s 6ms/step - loss: 0.2464 - val_loss: 0.1045
…
shape x_training : (227194, 560)  y_training: :  (227194, 24)
shape x_test     :  (75714, 560)  y_test      :  (75714, 24)
shape x_val      :  (75714, 560)  y_val       :  (75714, 24)
=============================================================
(560,)
Model: "MLP"
_________________________________________________________________
 Layer (type)                Output Shape              Param #   
=================================================================
 input_54 (InputLayer)       [(None, 560)]             0         
                                                                 
 dense_212 (Dense)           (None, 1024)              574464    
                                                                 
 elu_53 (ELU)                (None, 1024)              0         
                                                                 
 dropout_159 (Dropout)       (None, 1024)              0         
                                                                 
 dense_213 (Dense)           (None, 512)               524800    
                                                                 
 dropout_160 (Dropout)       (None, 512)               0         
                                                                 
 dense_214 (Dense)           (None, 512)               262656    
                                                                 
 dropout_161 (Dropout)       (None, 512)               0         
                                                                 
 dense_215 (Dense)           (None, 24)                12312     
                                                                 
=================================================================
Total params: 1,374,232
Trainable params: 1,374,232
Non-trainable params: 0
_________________________________________________________________
Epoch 1/200
222/222 [==============================] - 2s 7ms/step - loss: 0.4819 - val_loss: 0.1122
Epoch 2/200
222/222 [==============================] - 1s 6ms/step - loss: 0.2467 - val_loss: 0.1060
…
shape x_training : (227193, 567)  y_training: :  (227193, 24)
shape x_test     :  (75713, 567)  y_test      :  (75713, 24)
shape x_val      :  (75714, 567)  y_val       :  (75714, 24)
=============================================================
(567,)
Model: "MLP"
_________________________________________________________________
 Layer (type)                Output Shape              Param #   
=================================================================
 input_55 (InputLayer)       [(None, 567)]             0         
                                                                 
 dense_216 (Dense)           (None, 1024)              581632    
                                                                 
 elu_54 (ELU)                (None, 1024)              0         
                                                                 
 dropout_162 (Dropout)       (None, 1024)              0         
                                                                 
 dense_217 (Dense)           (None, 512)               524800    
                                                                 
 dropout_163 (Dropout)       (None, 512)               0         
                                                                 
 dense_218 (Dense)           (None, 512)               262656    
                                                                 
 dropout_164 (Dropout)       (None, 512)               0         
                                                                 
 dense_219 (Dense)           (None, 24)                12312     
                                                                 
=================================================================
Total params: 1,381,400
Trainable params: 1,381,400
Non-trainable params: 0
_________________________________________________________________
Epoch 1/200
222/222 [==============================] - 2s 7ms/step - loss: 0.4773 - val_loss: 0.1153
Epoch 2/200
222/222 [==============================] - 1s 6ms/step - loss: 0.2450 - val_loss: 0.1033
…
shape x_training : (227192, 574)  y_training: :  (227192, 24)
shape x_test     :  (75713, 574)  y_test      :  (75713, 24)
shape x_val      :  (75713, 574)  y_val       :  (75713, 24)
=============================================================
(574,)
Model: "MLP"
_________________________________________________________________
 Layer (type)                Output Shape              Param #   
=================================================================
 input_56 (InputLayer)       [(None, 574)]             0         
                                                                 
 dense_220 (Dense)           (None, 1024)              588800    
                                                                 
 elu_55 (ELU)                (None, 1024)              0         
                                                                 
 dropout_165 (Dropout)       (None, 1024)              0         
                                                                 
 dense_221 (Dense)           (None, 512)               524800    
                                                                 
 dropout_166 (Dropout)       (None, 512)               0         
                                                                 
 dense_222 (Dense)           (None, 512)               262656    
                                                                 
 dropout_167 (Dropout)       (None, 512)               0         
                                                                 
 dense_223 (Dense)           (None, 24)                12312     
                                                                 
=================================================================
Total params: 1,388,568
Trainable params: 1,388,568
Non-trainable params: 0
_________________________________________________________________
Epoch 1/200
222/222 [==============================] - 3s 8ms/step - loss: 0.4794 - val_loss: 0.1127
Epoch 2/200
222/222 [==============================] - 1s 6ms/step - loss: 0.2469 - val_loss: 0.1031
…
shape x_training : (227191, 581)  y_training: :  (227191, 24)
shape x_test     :  (75712, 581)  y_test      :  (75712, 24)
shape x_val      :  (75713, 581)  y_val       :  (75713, 24)
=============================================================
(581,)
Model: "MLP"
_________________________________________________________________
 Layer (type)                Output Shape              Param #   
=================================================================
 input_57 (InputLayer)       [(None, 581)]             0         
                                                                 
 dense_224 (Dense)           (None, 1024)              595968    
                                                                 
 elu_56 (ELU)                (None, 1024)              0         
                                                                 
 dropout_168 (Dropout)       (None, 1024)              0         
                                                                 
 dense_225 (Dense)           (None, 512)               524800    
                                                                 
 dropout_169 (Dropout)       (None, 512)               0         
                                                                 
 dense_226 (Dense)           (None, 512)               262656    
                                                                 
 dropout_170 (Dropout)       (None, 512)               0         
                                                                 
 dense_227 (Dense)           (None, 24)                12312     
                                                                 
=================================================================
Total params: 1,395,736
Trainable params: 1,395,736
Non-trainable params: 0
_________________________________________________________________
Epoch 1/200
222/222 [==============================] - 2s 7ms/step - loss: 0.4831 - val_loss: 0.1130
Epoch 2/200
222/222 [==============================] - 1s 6ms/step - loss: 0.2487 - val_loss: 0.1053
…
shape x_training : (227190, 588)  y_training: :  (227190, 24)
shape x_test     :  (75712, 588)  y_test      :  (75712, 24)
shape x_val      :  (75712, 588)  y_val       :  (75712, 24)
=============================================================
(588,)
Model: "MLP"
_________________________________________________________________
 Layer (type)                Output Shape              Param #   
=================================================================
 input_58 (InputLayer)       [(None, 588)]             0         
                                                                 
 dense_228 (Dense)           (None, 1024)              603136    
                                                                 
 elu_57 (ELU)                (None, 1024)              0         
                                                                 
 dropout_171 (Dropout)       (None, 1024)              0         
                                                                 
 dense_229 (Dense)           (None, 512)               524800    
                                                                 
 dropout_172 (Dropout)       (None, 512)               0         
                                                                 
 dense_230 (Dense)           (None, 512)               262656    
                                                                 
 dropout_173 (Dropout)       (None, 512)               0         
                                                                 
 dense_231 (Dense)           (None, 24)                12312     
                                                                 
=================================================================
Total params: 1,402,904
Trainable params: 1,402,904
Non-trainable params: 0
_________________________________________________________________
Epoch 1/200
222/222 [==============================] - 2s 7ms/step - loss: 0.4837 - val_loss: 0.1132
Epoch 2/200
222/222 [==============================] - 1s 6ms/step - loss: 0.2484 - val_loss: 0.1047
…
shape x_training : (227189, 595)  y_training: :  (227189, 24)
shape x_test     :  (75711, 595)  y_test      :  (75711, 24)
shape x_val      :  (75712, 595)  y_val       :  (75712, 24)
=============================================================
(595,)
Model: "MLP"
_________________________________________________________________
 Layer (type)                Output Shape              Param #   
=================================================================
 input_59 (InputLayer)       [(None, 595)]             0         
                                                                 
 dense_232 (Dense)           (None, 1024)              610304    
                                                                 
 elu_58 (ELU)                (None, 1024)              0         
                                                                 
 dropout_174 (Dropout)       (None, 1024)              0         
                                                                 
 dense_233 (Dense)           (None, 512)               524800    
                                                                 
 dropout_175 (Dropout)       (None, 512)               0         
                                                                 
 dense_234 (Dense)           (None, 512)               262656    
                                                                 
 dropout_176 (Dropout)       (None, 512)               0         
                                                                 
 dense_235 (Dense)           (None, 24)                12312     
                                                                 
=================================================================
Total params: 1,410,072
Trainable params: 1,410,072
Non-trainable params: 0
_________________________________________________________________
Epoch 1/200
222/222 [==============================] - 2s 8ms/step - loss: 0.4743 - val_loss: 0.1148
Epoch 2/200
222/222 [==============================] - 1s 6ms/step - loss: 0.2448 - val_loss: 0.1048
…
shape x_training : (227188, 602)  y_training: :  (227188, 24)
shape x_test     :  (75711, 602)  y_test      :  (75711, 24)
shape x_val      :  (75711, 602)  y_val       :  (75711, 24)
=============================================================
(602,)
Model: "MLP"
_________________________________________________________________
 Layer (type)                Output Shape              Param #   
=================================================================
 input_60 (InputLayer)       [(None, 602)]             0         
                                                                 
 dense_236 (Dense)           (None, 1024)              617472    
                                                                 
 elu_59 (ELU)                (None, 1024)              0         
                                                                 
 dropout_177 (Dropout)       (None, 1024)              0         
                                                                 
 dense_237 (Dense)           (None, 512)               524800    
                                                                 
 dropout_178 (Dropout)       (None, 512)               0         
                                                                 
 dense_238 (Dense)           (None, 512)               262656    
                                                                 
 dropout_179 (Dropout)       (None, 512)               0         
                                                                 
 dense_239 (Dense)           (None, 24)                12312     
                                                                 
=================================================================
Total params: 1,417,240
Trainable params: 1,417,240
Non-trainable params: 0
_________________________________________________________________
Epoch 1/200
222/222 [==============================] - 2s 8ms/step - loss: 0.4857 - val_loss: 0.1161
Epoch 2/200
222/222 [==============================] - 1s 6ms/step - loss: 0.2487 - val_loss: 0.1056
…
shape x_training : (227187, 609)  y_training: :  (227187, 24)
shape x_test     :  (75710, 609)  y_test      :  (75710, 24)
shape x_val      :  (75711, 609)  y_val       :  (75711, 24)
=============================================================
(609,)
Model: "MLP"
_________________________________________________________________
 Layer (type)                Output Shape              Param #   
=================================================================
 input_61 (InputLayer)       [(None, 609)]             0         
                                                                 
 dense_240 (Dense)           (None, 1024)              624640    
                                                                 
 elu_60 (ELU)                (None, 1024)              0         
                                                                 
 dropout_180 (Dropout)       (None, 1024)              0         
                                                                 
 dense_241 (Dense)           (None, 512)               524800    
                                                                 
 dropout_181 (Dropout)       (None, 512)               0         
                                                                 
 dense_242 (Dense)           (None, 512)               262656    
                                                                 
 dropout_182 (Dropout)       (None, 512)               0         
                                                                 
 dense_243 (Dense)           (None, 24)                12312     
                                                                 
=================================================================
Total params: 1,424,408
Trainable params: 1,424,408
Non-trainable params: 0
_________________________________________________________________
Epoch 1/200
222/222 [==============================] - 2s 8ms/step - loss: 0.4866 - val_loss: 0.1144
Epoch 2/200
222/222 [==============================] - 1s 6ms/step - loss: 0.2496 - val_loss: 0.1044
…
shape x_training : (227186, 616)  y_training: :  (227186, 24)
shape x_test     :  (75710, 616)  y_test      :  (75710, 24)
shape x_val      :  (75710, 616)  y_val       :  (75710, 24)
=============================================================
(616,)
Model: "MLP"
_________________________________________________________________
 Layer (type)                Output Shape              Param #   
=================================================================
 input_62 (InputLayer)       [(None, 616)]             0         
                                                                 
 dense_244 (Dense)           (None, 1024)              631808    
                                                                 
 elu_61 (ELU)                (None, 1024)              0         
                                                                 
 dropout_183 (Dropout)       (None, 1024)              0         
                                                                 
 dense_245 (Dense)           (None, 512)               524800    
                                                                 
 dropout_184 (Dropout)       (None, 512)               0         
                                                                 
 dense_246 (Dense)           (None, 512)               262656    
                                                                 
 dropout_185 (Dropout)       (None, 512)               0         
                                                                 
 dense_247 (Dense)           (None, 24)                12312     
                                                                 
=================================================================
Total params: 1,431,576
Trainable params: 1,431,576
Non-trainable params: 0
_________________________________________________________________
Epoch 1/200
222/222 [==============================] - 2s 8ms/step - loss: 0.4859 - val_loss: 0.1131
Epoch 2/200
222/222 [==============================] - 1s 6ms/step - loss: 0.2491 - val_loss: 0.1035
…
shape x_training : (227185, 623)  y_training: :  (227185, 24)
shape x_test     :  (75709, 623)  y_test      :  (75709, 24)
shape x_val      :  (75710, 623)  y_val       :  (75710, 24)
=============================================================
(623,)
Model: "MLP"
_________________________________________________________________
 Layer (type)                Output Shape              Param #   
=================================================================
 input_63 (InputLayer)       [(None, 623)]             0         
                                                                 
 dense_248 (Dense)           (None, 1024)              638976    
                                                                 
 elu_62 (ELU)                (None, 1024)              0         
                                                                 
 dropout_186 (Dropout)       (None, 1024)              0         
                                                                 
 dense_249 (Dense)           (None, 512)               524800    
                                                                 
 dropout_187 (Dropout)       (None, 512)               0         
                                                                 
 dense_250 (Dense)           (None, 512)               262656    
                                                                 
 dropout_188 (Dropout)       (None, 512)               0         
                                                                 
 dense_251 (Dense)           (None, 24)                12312     
                                                                 
=================================================================
Total params: 1,438,744
Trainable params: 1,438,744
Non-trainable params: 0
_________________________________________________________________
Epoch 1/200
222/222 [==============================] - 2s 7ms/step - loss: 0.5009 - val_loss: 0.1146
Epoch 2/200
222/222 [==============================] - 1s 6ms/step - loss: 0.2518 - val_loss: 0.1066
…
shape x_training : (227184, 630)  y_training: :  (227184, 24)
shape x_test     :  (75709, 630)  y_test      :  (75709, 24)
shape x_val      :  (75709, 630)  y_val       :  (75709, 24)
=============================================================
(630,)
Model: "MLP"
_________________________________________________________________
 Layer (type)                Output Shape              Param #   
=================================================================
 input_64 (InputLayer)       [(None, 630)]             0         
                                                                 
 dense_252 (Dense)           (None, 1024)              646144    
                                                                 
 elu_63 (ELU)                (None, 1024)              0         
                                                                 
 dropout_189 (Dropout)       (None, 1024)              0         
                                                                 
 dense_253 (Dense)           (None, 512)               524800    
                                                                 
 dropout_190 (Dropout)       (None, 512)               0         
                                                                 
 dense_254 (Dense)           (None, 512)               262656    
                                                                 
 dropout_191 (Dropout)       (None, 512)               0         
                                                                 
 dense_255 (Dense)           (None, 24)                12312     
                                                                 
=================================================================
Total params: 1,445,912
Trainable params: 1,445,912
Non-trainable params: 0
_________________________________________________________________
Epoch 1/200
222/222 [==============================] - 3s 9ms/step - loss: 0.4971 - val_loss: 0.1144
Epoch 2/200
222/222 [==============================] - 1s 7ms/step - loss: 0.2512 - val_loss: 0.1043
…
shape x_training : (227183, 637)  y_training: :  (227183, 24)
shape x_test     :  (75708, 637)  y_test      :  (75708, 24)
shape x_val      :  (75709, 637)  y_val       :  (75709, 24)
=============================================================
(637,)
Model: "MLP"
_________________________________________________________________
 Layer (type)                Output Shape              Param #   
=================================================================
 input_65 (InputLayer)       [(None, 637)]             0         
                                                                 
 dense_256 (Dense)           (None, 1024)              653312    
                                                                 
 elu_64 (ELU)                (None, 1024)              0         
                                                                 
 dropout_192 (Dropout)       (None, 1024)              0         
                                                                 
 dense_257 (Dense)           (None, 512)               524800    
                                                                 
 dropout_193 (Dropout)       (None, 512)               0         
                                                                 
 dense_258 (Dense)           (None, 512)               262656    
                                                                 
 dropout_194 (Dropout)       (None, 512)               0         
                                                                 
 dense_259 (Dense)           (None, 24)                12312     
                                                                 
=================================================================
Total params: 1,453,080
Trainable params: 1,453,080
Non-trainable params: 0
_________________________________________________________________
Epoch 1/200
222/222 [==============================] - 2s 7ms/step - loss: 0.4947 - val_loss: 0.1160
Epoch 2/200
222/222 [==============================] - 1s 6ms/step - loss: 0.2525 - val_loss: 0.1048
…
shape x_training : (227182, 644)  y_training: :  (227182, 24)
shape x_test     :  (75708, 644)  y_test      :  (75708, 24)
shape x_val      :  (75708, 644)  y_val       :  (75708, 24)
=============================================================
(644,)
Model: "MLP"
_________________________________________________________________
 Layer (type)                Output Shape              Param #   
=================================================================
 input_66 (InputLayer)       [(None, 644)]             0         
                                                                 
 dense_260 (Dense)           (None, 1024)              660480    
                                                                 
 elu_65 (ELU)                (None, 1024)              0         
                                                                 
 dropout_195 (Dropout)       (None, 1024)              0         
                                                                 
 dense_261 (Dense)           (None, 512)               524800    
                                                                 
 dropout_196 (Dropout)       (None, 512)               0         
                                                                 
 dense_262 (Dense)           (None, 512)               262656    
                                                                 
 dropout_197 (Dropout)       (None, 512)               0         
                                                                 
 dense_263 (Dense)           (None, 24)                12312     
                                                                 
=================================================================
Total params: 1,460,248
Trainable params: 1,460,248
Non-trainable params: 0
_________________________________________________________________
Epoch 1/200
222/222 [==============================] - 2s 8ms/step - loss: 0.4941 - val_loss: 0.1149
Epoch 2/200
222/222 [==============================] - 1s 6ms/step - loss: 0.2518 - val_loss: 0.1045
…
shape x_training : (227181, 651)  y_training: :  (227181, 24)
shape x_test     :  (75707, 651)  y_test      :  (75707, 24)
shape x_val      :  (75708, 651)  y_val       :  (75708, 24)
=============================================================
(651,)
Model: "MLP"
_________________________________________________________________
 Layer (type)                Output Shape              Param #   
=================================================================
 input_67 (InputLayer)       [(None, 651)]             0         
                                                                 
 dense_264 (Dense)           (None, 1024)              667648    
                                                                 
 elu_66 (ELU)                (None, 1024)              0         
                                                                 
 dropout_198 (Dropout)       (None, 1024)              0         
                                                                 
 dense_265 (Dense)           (None, 512)               524800    
                                                                 
 dropout_199 (Dropout)       (None, 512)               0         
                                                                 
 dense_266 (Dense)           (None, 512)               262656    
                                                                 
 dropout_200 (Dropout)       (None, 512)               0         
                                                                 
 dense_267 (Dense)           (None, 24)                12312     
                                                                 
=================================================================
Total params: 1,467,416
Trainable params: 1,467,416
Non-trainable params: 0
_________________________________________________________________
Epoch 1/200
222/222 [==============================] - 2s 8ms/step - loss: 0.4945 - val_loss: 0.1156
Epoch 2/200
222/222 [==============================] - 1s 6ms/step - loss: 0.2520 - val_loss: 0.1047
…
shape x_training : (227180, 658)  y_training: :  (227180, 24)
shape x_test     :  (75707, 658)  y_test      :  (75707, 24)
shape x_val      :  (75707, 658)  y_val       :  (75707, 24)
=============================================================
(658,)
Model: "MLP"
_________________________________________________________________
 Layer (type)                Output Shape              Param #   
=================================================================
 input_68 (InputLayer)       [(None, 658)]             0         
                                                                 
 dense_268 (Dense)           (None, 1024)              674816    
                                                                 
 elu_67 (ELU)                (None, 1024)              0         
                                                                 
 dropout_201 (Dropout)       (None, 1024)              0         
                                                                 
 dense_269 (Dense)           (None, 512)               524800    
                                                                 
 dropout_202 (Dropout)       (None, 512)               0         
                                                                 
 dense_270 (Dense)           (None, 512)               262656    
                                                                 
 dropout_203 (Dropout)       (None, 512)               0         
                                                                 
 dense_271 (Dense)           (None, 24)                12312     
                                                                 
=================================================================
Total params: 1,474,584
Trainable params: 1,474,584
Non-trainable params: 0
_________________________________________________________________
Epoch 1/200
222/222 [==============================] - 2s 9ms/step - loss: 0.4987 - val_loss: 0.1132
Epoch 2/200
222/222 [==============================] - 1s 7ms/step - loss: 0.2528 - val_loss: 0.1034
…
shape x_training : (227179, 665)  y_training: :  (227179, 24)
shape x_test     :  (75706, 665)  y_test      :  (75706, 24)
shape x_val      :  (75707, 665)  y_val       :  (75707, 24)
=============================================================
(665,)
Model: "MLP"
_________________________________________________________________
 Layer (type)                Output Shape              Param #   
=================================================================
 input_69 (InputLayer)       [(None, 665)]             0         
                                                                 
 dense_272 (Dense)           (None, 1024)              681984    
                                                                 
 elu_68 (ELU)                (None, 1024)              0         
                                                                 
 dropout_204 (Dropout)       (None, 1024)              0         
                                                                 
 dense_273 (Dense)           (None, 512)               524800    
                                                                 
 dropout_205 (Dropout)       (None, 512)               0         
                                                                 
 dense_274 (Dense)           (None, 512)               262656    
                                                                 
 dropout_206 (Dropout)       (None, 512)               0         
                                                                 
 dense_275 (Dense)           (None, 24)                12312     
                                                                 
=================================================================
Total params: 1,481,752
Trainable params: 1,481,752
Non-trainable params: 0
_________________________________________________________________
Epoch 1/200
222/222 [==============================] - 2s 7ms/step - loss: 0.5047 - val_loss: 0.1146
Epoch 2/200
222/222 [==============================] - 1s 6ms/step - loss: 0.2549 - val_loss: 0.1065
…
shape x_training : (227178, 672)  y_training: :  (227178, 24)
shape x_test     :  (75706, 672)  y_test      :  (75706, 24)
shape x_val      :  (75706, 672)  y_val       :  (75706, 24)
=============================================================
(672,)
Model: "MLP"
_________________________________________________________________
 Layer (type)                Output Shape              Param #   
=================================================================
 input_70 (InputLayer)       [(None, 672)]             0         
                                                                 
 dense_276 (Dense)           (None, 1024)              689152    
                                                                 
 elu_69 (ELU)                (None, 1024)              0         
                                                                 
 dropout_207 (Dropout)       (None, 1024)              0         
                                                                 
 dense_277 (Dense)           (None, 512)               524800    
                                                                 
 dropout_208 (Dropout)       (None, 512)               0         
                                                                 
 dense_278 (Dense)           (None, 512)               262656    
                                                                 
 dropout_209 (Dropout)       (None, 512)               0         
                                                                 
 dense_279 (Dense)           (None, 24)                12312     
                                                                 
=================================================================
Total params: 1,488,920
Trainable params: 1,488,920
Non-trainable params: 0
_________________________________________________________________
Epoch 1/200
222/222 [==============================] - 2s 9ms/step - loss: 0.4969 - val_loss: 0.1167
Epoch 2/200
222/222 [==============================] - 1s 7ms/step - loss: 0.2534 - val_loss: 0.1052
…
shape x_training : (227177, 679)  y_training: :  (227177, 24)
shape x_test     :  (75705, 679)  y_test      :  (75705, 24)
shape x_val      :  (75706, 679)  y_val       :  (75706, 24)
=============================================================
(679,)
Model: "MLP"
_________________________________________________________________
 Layer (type)                Output Shape              Param #   
=================================================================
 input_71 (InputLayer)       [(None, 679)]             0         
                                                                 
 dense_280 (Dense)           (None, 1024)              696320    
                                                                 
 elu_70 (ELU)                (None, 1024)              0         
                                                                 
 dropout_210 (Dropout)       (None, 1024)              0         
                                                                 
 dense_281 (Dense)           (None, 512)               524800    
                                                                 
 dropout_211 (Dropout)       (None, 512)               0         
                                                                 
 dense_282 (Dense)           (None, 512)               262656    
                                                                 
 dropout_212 (Dropout)       (None, 512)               0         
                                                                 
 dense_283 (Dense)           (None, 24)                12312     
                                                                 
=================================================================
Total params: 1,496,088
Trainable params: 1,496,088
Non-trainable params: 0

=========== SHAPE INPUT-OUTPUT MATRIXES =====================
shape x_training : (227178, 672)  y_training: :  (227178, 24)
shape x_test     :  (75706, 672)  y_test      :  (75706, 24)
shape x_val      :  (75706, 672)  y_val       :  (75706, 24)
…
shape x_training : (227176, 686)  y_training: :  (227176, 24)
shape x_test     :  (75705, 686)  y_test      :  (75705, 24)
shape x_val      :  (75705, 686)  y_val       :  (75705, 24)
=============================================================
(686,)
Model: "MLP"
_________________________________________________________________
 Layer (type)                Output Shape              Param #   
=================================================================
 input_3 (InputLayer)        [(None, 686)]             0         
                                                                 
 dense_8 (Dense)             (None, 1024)              703488    
                                                                 
 elu_2 (ELU)                 (None, 1024)              0         
                                                                 
 dropout_6 (Dropout)         (None, 1024)              0         
                                                                 
 dense_9 (Dense)             (None, 512)               524800    
                                                                 
 dropout_7 (Dropout)         (None, 512)               0         
                                                                 
 dense_10 (Dense)            (None, 512)               262656    
                                                                 
 dropout_8 (Dropout)         (None, 512)               0         
                                                                 
 dense_11 (Dense)            (None, 24)                12312     
                                                                 
=================================================================
Total params: 1,503,256
Trainable params: 1,503,256
Non-trainable params: 0
_________________________________________________________________
Epoch 1/200
222/222 [==============================] - 2s 8ms/step - loss: 0.5023 - val_loss: 0.1150
Epoch 2/200
222/222 [==============================] - 1s 6ms/step - loss: 0.2554 - val_loss: 0.1028
…
shape x_training : (227175, 693)  y_training: :  (227175, 24)
shape x_test     :  (75704, 693)  y_test      :  (75704, 24)
shape x_val      :  (75705, 693)  y_val       :  (75705, 24)
=============================================================
(693,)
Model: "MLP"
_________________________________________________________________
 Layer (type)                Output Shape              Param #   
=================================================================
 input_4 (InputLayer)        [(None, 693)]             0         
                                                                 
 dense_12 (Dense)            (None, 1024)              710656    
                                                                 
 elu_3 (ELU)                 (None, 1024)              0         
                                                                 
 dropout_9 (Dropout)         (None, 1024)              0         
                                                                 
 dense_13 (Dense)            (None, 512)               524800    
                                                                 
 dropout_10 (Dropout)        (None, 512)               0         
                                                                 
 dense_14 (Dense)            (None, 512)               262656    
                                                                 
…
 dropout_5 (Dropout)         (None, 512)               0         
                                                                 
 dense_7 (Dense)             (None, 24)                12312     
                                                                 
=================================================================
Total params: 1,861,656
Trainable params: 1,861,656
Non-trainable params: 0
_________________________________________________________________
Epoch 1/200
222/222 [==============================] - 2s 7ms/step - loss: 0.5521 - val_loss: 0.1169
Epoch 2/200
222/222 [==============================] - 2s 7ms/step - loss: 0.2713 - val_loss: 0.1059
…
shape x_training : (227124, 1050)  y_training: :  (227124, 24)
shape x_test     :  (75679, 1050)  y_test      :  (75679, 24)
shape x_val      :  (75679, 1050)  y_val       :  (75679, 24)
=============================================================
(1050,)
Model: "MLP"
_________________________________________________________________
 Layer (type)                Output Shape              Param #   
=================================================================
 input_3 (InputLayer)        [(None, 1050)]            0         
                                                                 
 dense_8 (Dense)             (None, 1024)              1076224   
                                                                 
 elu_2 (ELU)                 (None, 1024)              0         
                                                                 
 dropout_6 (Dropout)         (None, 1024)              0         
                                                                 
 dense_9 (Dense)             (None, 512)               524800    
                                                                 
 dropout_7 (Dropout)         (None, 512)               0         
                                                                 
 dense_10 (Dense)            (None, 512)               262656    
                                                                 
 dropout_8 (Dropout)         (None, 512)               0         
                                                                 
 dense_11 (Dense)            (None, 24)                12312     
                                                                 
=================================================================
Total params: 1,875,992
Trainable params: 1,875,992
Non-trainable params: 0
_________________________________________________________________
Epoch 1/200
222/222 [==============================] - 2s 8ms/step - loss: 0.5378 - val_loss: 0.1224
Epoch 2/200
222/222 [==============================] - 2s 7ms/step - loss: 0.2693 - val_loss: 0.1101
…
shape x_training : (227122, 1064)  y_training: :  (227122, 24)
shape x_test     :  (75678, 1064)  y_test      :  (75678, 24)
shape x_val      :  (75678, 1064)  y_val       :  (75678, 24)
=============================================================
(1064,)
Model: "MLP"
_________________________________________________________________
 Layer (type)                Output Shape              Param #   
=================================================================
 input_4 (InputLayer)        [(None, 1064)]            0         
                                                                 
 dense_12 (Dense)            (None, 1024)              1090560   
                                                                 
 elu_3 (ELU)                 (None, 1024)              0         
                                                                 
 dropout_9 (Dropout)         (None, 1024)              0         
                                                                 
 dense_13 (Dense)            (None, 512)               524800    
                                                                 
 dropout_10 (Dropout)        (None, 512)               0         
                                                                 
 dense_14 (Dense)            (None, 512)               262656    
                                                                 
 dropout_11 (Dropout)        (None, 512)               0         
                                                                 
 dense_15 (Dense)            (None, 24)                12312     
                                                                 
=================================================================
Total params: 1,890,328
Trainable params: 1,890,328
Non-trainable params: 0
_________________________________________________________________
Epoch 1/200
222/222 [==============================] - 2s 8ms/step - loss: 0.5443 - val_loss: 0.1191
Epoch 2/200
222/222 [==============================] - 2s 7ms/step - loss: 0.2700 - val_loss: 0.1108
…
shape x_training : (227120, 1078)  y_training: :  (227120, 24)
shape x_test     :  (75677, 1078)  y_test      :  (75677, 24)
shape x_val      :  (75677, 1078)  y_val       :  (75677, 24)
=============================================================
(1078,)
Model: "MLP"
_________________________________________________________________
 Layer (type)                Output Shape              Param #   
=================================================================
 input_5 (InputLayer)        [(None, 1078)]            0         
                                                                 
 dense_16 (Dense)            (None, 1024)              1104896   
                                                                 
 elu_4 (ELU)                 (None, 1024)              0         
                                                                 
 dropout_12 (Dropout)        (None, 1024)              0         
                                                                 
 dense_17 (Dense)            (None, 512)               524800    
                                                                 
 dropout_13 (Dropout)        (None, 512)               0         
                                                                 
 dense_18 (Dense)            (None, 512)               262656    
                                                                 
 dropout_14 (Dropout)        (None, 512)               0         
                                                                 
 dense_19 (Dense)            (None, 24)                12312     
                                                                 
=================================================================
Total params: 1,904,664
Trainable params: 1,904,664
Non-trainable params: 0



=========== SHAPE INPUT-OUTPUT MATRIXES =====================
shape x_training : (227120, 1078)  y_training: :  (227120, 24)
shape x_test     :  (75677, 1078)  y_test      :  (75677, 24)
…
shape x_training : (227118, 1092)  y_training: :  (227118, 24)
shape x_test     :  (75676, 1092)  y_test      :  (75676, 24)
shape x_val      :  (75676, 1092)  y_val       :  (75676, 24)
=============================================================
(1092,)
Model: "MLP"
_________________________________________________________________
 Layer (type)                Output Shape              Param #   
=================================================================
 input_2 (InputLayer)        [(None, 1092)]            0         
                                                                 
 dense_4 (Dense)             (None, 1024)              1119232   
                                                                 
 elu_1 (ELU)                 (None, 1024)              0         
                                                                 
 dropout_3 (Dropout)         (None, 1024)              0         
                                                                 
 dense_5 (Dense)             (None, 512)               524800    
                                                                 
 dropout_4 (Dropout)         (None, 512)               0         
                                                                 
 dense_6 (Dense)             (None, 512)               262656    
                                                                 
 dropout_5 (Dropout)         (None, 512)               0         
                                                                 
 dense_7 (Dense)             (None, 24)                12312     
                                                                 
=================================================================
Total params: 1,919,000
Trainable params: 1,919,000
Non-trainable params: 0
_________________________________________________________________
Epoch 1/200
222/222 [==============================] - 2s 8ms/step - loss: 0.5502 - val_loss: 0.1197
Epoch 2/200
222/222 [==============================] - 2s 7ms/step - loss: 0.2723 - val_loss: 0.1083
…
shape x_training : (227116, 1106)  y_training: :  (227116, 24)
shape x_test     :  (75675, 1106)  y_test      :  (75675, 24)
shape x_val      :  (75675, 1106)  y_val       :  (75675, 24)
=============================================================
(1106,)
Model: "MLP"
_________________________________________________________________
 Layer (type)                Output Shape              Param #   
=================================================================
 input_3 (InputLayer)        [(None, 1106)]            0         
                                                                 
 dense_8 (Dense)             (None, 1024)              1133568   
                                                                 
 elu_2 (ELU)                 (None, 1024)              0         
                                                                 
 dropout_6 (Dropout)         (None, 1024)              0         
                                                                 
 dense_9 (Dense)             (None, 512)               524800    
                                                                 
 dropout_7 (Dropout)         (None, 512)               0         
                                                                 
 dense_10 (Dense)            (None, 512)               262656    
                                                                 
 dropout_8 (Dropout)         (None, 512)               0         
                                                                 
 dense_11 (Dense)            (None, 24)                12312     
                                                                 
=================================================================
Total params: 1,933,336
Trainable params: 1,933,336
Non-trainable params: 0
_________________________________________________________________
Epoch 1/200
222/222 [==============================] - 2s 7ms/step - loss: 0.5513 - val_loss: 0.1182
Epoch 2/200
222/222 [==============================] - 1s 6ms/step - loss: 0.2723 - val_loss: 0.1072
…
shape x_training : (227114, 1120)  y_training: :  (227114, 24)
shape x_test     :  (75674, 1120)  y_test      :  (75674, 24)
shape x_val      :  (75674, 1120)  y_val       :  (75674, 24)
=============================================================
(1120,)
Model: "MLP"
_________________________________________________________________
 Layer (type)                Output Shape              Param #   
=================================================================
 input_4 (InputLayer)        [(None, 1120)]            0         
                                                                 
 dense_12 (Dense)            (None, 1024)              1147904   
                                                                 
 elu_3 (ELU)                 (None, 1024)              0         
                                                                 
 dropout_9 (Dropout)         (None, 1024)              0         
                                                                 
 dense_13 (Dense)            (None, 512)               524800    
                                                                 
 dropout_10 (Dropout)        (None, 512)               0         
                                                                 
 dense_14 (Dense)            (None, 512)               262656    
                                                                 
 dropout_11 (Dropout)        (None, 512)               0         
                                                                 
 dense_15 (Dense)            (None, 24)                12312     
                                                                 
=================================================================
Total params: 1,947,672
Trainable params: 1,947,672
Non-trainable params: 0
_________________________________________________________________
Epoch 1/200
222/222 [==============================] - 2s 7ms/step - loss: 0.5482 - val_loss: 0.1188
Epoch 2/200
222/222 [==============================] - 1s 7ms/step - loss: 0.2724 - val_loss: 0.1089
…
shape x_training : (227112, 1134)  y_training: :  (227112, 24)
shape x_test     :  (75673, 1134)  y_test      :  (75673, 24)
shape x_val      :  (75673, 1134)  y_val       :  (75673, 24)
=============================================================
(1134,)
Model: "MLP"
_________________________________________________________________
 Layer (type)                Output Shape              Param #   
=================================================================
 input_5 (InputLayer)        [(None, 1134)]            0         
                                                                 
 dense_16 (Dense)            (None, 1024)              1162240   
                                                                 
 elu_4 (ELU)                 (None, 1024)              0         
                                                                 
 dropout_12 (Dropout)        (None, 1024)              0         
                                                                 
 dense_17 (Dense)            (None, 512)               524800    
                                                                 
 dropout_13 (Dropout)        (None, 512)               0         
                                                                 
 dense_18 (Dense)            (None, 512)               262656    
                                                                 
 dropout_14 (Dropout)        (None, 512)               0         
                                                                 
 dense_19 (Dense)            (None, 24)                12312     
                                                                 
=================================================================
Total params: 1,962,008
Trainable params: 1,962,008
Non-trainable params: 0
_________________________________________________________________
Epoch 1/200
222/222 [==============================] - 2s 8ms/step - loss: 0.5454 - val_loss: 0.1204
Epoch 2/200
222/222 [==============================] - 2s 7ms/step - loss: 0.2717 - val_loss: 0.1086
…
shape x_training : (227110, 1148)  y_training: :  (227110, 24)
shape x_test     :  (75672, 1148)  y_test      :  (75672, 24)
shape x_val      :  (75672, 1148)  y_val       :  (75672, 24)
=============================================================
(1148,)
Model: "MLP"
_________________________________________________________________
 Layer (type)                Output Shape              Param #   
=================================================================
 input_6 (InputLayer)        [(None, 1148)]            0         
                                                                 
 dense_20 (Dense)            (None, 1024)              1176576   
                                                                 
 elu_5 (ELU)                 (None, 1024)              0         
                                                                 
 dropout_15 (Dropout)        (None, 1024)              0         
                                                                 
 dense_21 (Dense)            (None, 512)               524800    
                                                                 
 dropout_16 (Dropout)        (None, 512)               0         
                                                                 
 dense_22 (Dense)            (None, 512)               262656    
                                                                 
 dropout_17 (Dropout)        (None, 512)               0         
                                                                 
 dense_23 (Dense)            (None, 24)                12312     
                                                                 
=================================================================
Total params: 1,976,344
Trainable params: 1,976,344
Non-trainable params: 0
_________________________________________________________________


=========== SHAPE INPUT-OUTPUT MATRIXES =====================
shape x_training : (227104, 1190)  y_training: :  (227104, 24)
shape x_test     :  (75669, 1190)  y_test      :  (75669, 24)
shape x_val      :  (75669, 1190)  y_val       :  (75669, 24)
=============================================================
(1190,)
Model: "MLP"
_________________________________________________________________
 Layer (type)                Output Shape              Param #   
=================================================================
 input_1 (InputLayer)        [(None, 1190)]            0         
                                                                 
 dense (Dense)               (None, 1024)              1219584   
                                                                 
 elu (ELU)                   (None, 1024)              0         
                                                                 
 dropout (Dropout)           (None, 1024)              0         
                                                                 
 dense_1 (Dense)             (None, 512)               524800    
                                                                 
 dropout_1 (Dropout)         (None, 512)               0         
                                                                 
 dense_2 (Dense)             (None, 512)               262656    
                                                                 
 dropout_2 (Dropout)         (None, 512)               0         
                                                                 
 dense_3 (Dense)             (None, 24)                12312     
                                                                 
=================================================================
Total params: 2,019,352
Trainable params: 2,019,352
Non-trainable params: 0
_________________________________________________________________
Epoch 1/200
222/222 [==============================] - 3s 8ms/step - loss: 0.5563 - val_loss: 0.1228
Epoch 2/200
222/222 [==============================] - 1s 6ms/step - loss: 0.2726 - val_loss: 0.1068
…
shape x_training : (227102, 1204)  y_training: :  (227102, 24)
shape x_test     :  (75668, 1204)  y_test      :  (75668, 24)
shape x_val      :  (75668, 1204)  y_val       :  (75668, 24)
=============================================================
(1204,)
Model: "MLP"
_________________________________________________________________
 Layer (type)                Output Shape              Param #   
=================================================================
 input_2 (InputLayer)        [(None, 1204)]            0         
                                                                 
 dense_4 (Dense)             (None, 1024)              1233920   
                                                                 
 elu_1 (ELU)                 (None, 1024)              0         
                                                                 
 dropout_3 (Dropout)         (None, 1024)              0         
                                                                 
 dense_5 (Dense)             (None, 512)               524800    
                                                                 
 dropout_4 (Dropout)         (None, 512)               0         
                                                                 
 dense_6 (Dense)             (None, 512)               262656    
                                                                 
 dropout_5 (Dropout)         (None, 512)               0         
                                                                 
 dense_7 (Dense)             (None, 24)                12312     
                                                                 
=================================================================
Total params: 2,033,688
Trainable params: 2,033,688
Non-trainable params: 0
_________________________________________________________________
Epoch 1/200
222/222 [==============================] - 3s 10ms/step - loss: 0.5614 - val_loss: 0.1230
Epoch 2/200
222/222 [==============================] - 2s 7ms/step - loss: 0.2754 - val_loss: 0.1103
…
shape x_training : (227100, 1218)  y_training: :  (227100, 24)
shape x_test     :  (75667, 1218)  y_test      :  (75667, 24)
shape x_val      :  (75667, 1218)  y_val       :  (75667, 24)
=============================================================
(1218,)
Model: "MLP"
_________________________________________________________________
 Layer (type)                Output Shape              Param #   
=================================================================
 input_3 (InputLayer)        [(None, 1218)]            0         
                                                                 
 dense_8 (Dense)             (None, 1024)              1248256   
                                                                 
 elu_2 (ELU)                 (None, 1024)              0         
                                                                 
 dropout_6 (Dropout)         (None, 1024)              0         
                                                                 
 dense_9 (Dense)             (None, 512)               524800    
                                                                 
 dropout_7 (Dropout)         (None, 512)               0         
                                                                 
 dense_10 (Dense)            (None, 512)               262656    
                                                                 
 dropout_8 (Dropout)         (None, 512)               0         
                                                                 
 dense_11 (Dense)            (None, 24)                12312     
                                                                 
=================================================================
Total params: 2,048,024
Trainable params: 2,048,024
Non-trainable params: 0
_________________________________________________________________
Epoch 1/200
222/222 [==============================] - 3s 9ms/step - loss: 0.5628 - val_loss: 0.1219
Epoch 2/200
222/222 [==============================] - 1s 7ms/step - loss: 0.2750 - val_loss: 0.1106
…
shape x_training : (227098, 1232)  y_training: :  (227098, 24)
shape x_test     :  (75666, 1232)  y_test      :  (75666, 24)
shape x_val      :  (75666, 1232)  y_val       :  (75666, 24)
=============================================================
(1232,)
Model: "MLP"
_________________________________________________________________
 Layer (type)                Output Shape              Param #   
=================================================================
 input_1 (InputLayer)        [(None, 1232)]            0         
                                                                 
 dense (Dense)               (None, 1024)              1262592   
                                                                 
 elu (ELU)                   (None, 1024)              0         
                                                                 
 dropout (Dropout)           (None, 1024)              0         
                                                                 
 dense_1 (Dense)             (None, 512)               524800    
                                                                 
 dropout_1 (Dropout)         (None, 512)               0         
                                                                 
 dense_2 (Dense)             (None, 512)               262656    
                                                                 
 dropout_2 (Dropout)         (None, 512)               0         
                                                                 
 dense_3 (Dense)             (None, 24)                12312     
                                                                 
=================================================================
Total params: 2,062,360
Trainable params: 2,062,360
Non-trainable params: 0
_________________________________________________________________
Epoch 1/200
222/222 [==============================] - 3s 8ms/step - loss: 0.5535 - val_loss: 0.1226
Epoch 2/200
222/222 [==============================] - 1s 6ms/step - loss: 0.2750 - val_loss: 0.1099
…
shape x_training : (227096, 1246)  y_training: :  (227096, 24)
shape x_test     :  (75665, 1246)  y_test      :  (75665, 24)
shape x_val      :  (75665, 1246)  y_val       :  (75665, 24)
=============================================================
(1246,)
Model: "MLP"
_________________________________________________________________
 Layer (type)                Output Shape              Param #   
=================================================================
 input_2 (InputLayer)        [(None, 1246)]            0         
                                                                 
 dense_4 (Dense)             (None, 1024)              1276928   
                                                                 
 elu_1 (ELU)                 (None, 1024)              0         
                                                                 
 dropout_3 (Dropout)         (None, 1024)              0         
                                                                 
 dense_5 (Dense)             (None, 512)               524800    
                                                                 
 dropout_4 (Dropout)         (None, 512)               0         
                                                                 
 dense_6 (Dense)             (None, 512)               262656    
                                                                 
 dropout_5 (Dropout)         (None, 512)               0         
                                                                 
 dense_7 (Dense)             (None, 24)                12312     
                                                                 
=================================================================
Total params: 2,076,696
Trainable params: 2,076,696
Non-trainable params: 0
_________________________________________________________________
Epoch 1/200
222/222 [==============================] - 2s 8ms/step - loss: 0.5644 - val_loss: 0.1221
Epoch 2/200
222/222 [==============================] - 2s 7ms/step - loss: 0.2759 - val_loss: 0.1109
…
shape x_training : (227094, 1260)  y_training: :  (227094, 24)
shape x_test     :  (75664, 1260)  y_test      :  (75664, 24)
shape x_val      :  (75664, 1260)  y_val       :  (75664, 24)
=============================================================
(1260,)
Model: "MLP"
_________________________________________________________________
 Layer (type)                Output Shape              Param #   
=================================================================
 input_3 (InputLayer)        [(None, 1260)]            0         
                                                                 
 dense_8 (Dense)             (None, 1024)              1291264   
                                                                 
 elu_2 (ELU)                 (None, 1024)              0         
                                                                 
 dropout_6 (Dropout)         (None, 1024)              0         
                                                                 
 dense_9 (Dense)             (None, 512)               524800    
                                                                 
 dropout_7 (Dropout)         (None, 512)               0         
                                                                 
 dense_10 (Dense)            (None, 512)               262656    
                                                                 
 dropout_8 (Dropout)         (None, 512)               0         
                                                                 
 dense_11 (Dense)            (None, 24)                12312     
                                                                 
=================================================================
Total params: 2,091,032
Trainable params: 2,091,032
Non-trainable params: 0
_________________________________________________________________
Epoch 1/200
222/222 [==============================] - 2s 8ms/step - loss: 0.5657 - val_loss: 0.1204
Epoch 2/200
222/222 [==============================] - 2s 7ms/step - loss: 0.2761 - val_loss: 0.1104
…
shape x_training : (227092, 1274)  y_training: :  (227092, 24)
shape x_test     :  (75663, 1274)  y_test      :  (75663, 24)
shape x_val      :  (75663, 1274)  y_val       :  (75663, 24)
=============================================================
(1274,)
Model: "MLP"
_________________________________________________________________
 Layer (type)                Output Shape              Param #   
=================================================================
 input_4 (InputLayer)        [(None, 1274)]            0         
                                                                 
 dense_12 (Dense)            (None, 1024)              1305600   
                                                                 
 elu_3 (ELU)                 (None, 1024)              0         
                                                                 
 dropout_9 (Dropout)         (None, 1024)              0         
                                                                 
 dense_13 (Dense)            (None, 512)               524800    
                                                                 
 dropout_10 (Dropout)        (None, 512)               0         
                                                                 
 dense_14 (Dense)            (None, 512)               262656    
                                                                 
 dropout_11 (Dropout)        (None, 512)               0         
                                                                 
 dense_15 (Dense)            (None, 24)                12312     
                                                                 
=================================================================
Total params: 2,105,368
Trainable params: 2,105,368
Non-trainable params: 0
_________________________________________________________________
Epoch 1/200
222/222 [==============================] - 2s 8ms/step - loss: 0.5677 - val_loss: 0.1239
Epoch 2/200
222/222 [==============================] - 1s 7ms/step - loss: 0.2770 - val_loss: 0.1123
…
shape x_training : (227090, 1288)  y_training: :  (227090, 24)
shape x_test     :  (75662, 1288)  y_test      :  (75662, 24)
shape x_val      :  (75662, 1288)  y_val       :  (75662, 24)
=============================================================
(1288,)
Model: "MLP"
_________________________________________________________________
 Layer (type)                Output Shape              Param #   
=================================================================
 input_5 (InputLayer)        [(None, 1288)]            0         
                                                                 
 dense_16 (Dense)            (None, 1024)              1319936   
                                                                 
 elu_4 (ELU)                 (None, 1024)              0         
                                                                 
 dropout_12 (Dropout)        (None, 1024)              0         
                                                                 
 dense_17 (Dense)            (None, 512)               524800    
                                                                 
 dropout_13 (Dropout)        (None, 512)               0         
                                                                 
 dense_18 (Dense)            (None, 512)               262656    
                                                                 
 dropout_14 (Dropout)        (None, 512)               0         
                                                                 
 dense_19 (Dense)            (None, 24)                12312     
                                                                 
=================================================================
Total params: 2,119,704
Trainable params: 2,119,704
Non-trainable params: 0
_________________________________________________________________
Epoch 1/200
222/222 [==============================] - 2s 7ms/step - loss: 0.5659 - val_loss: 0.1222
Epoch 2/200
222/222 [==============================] - 1s 6ms/step - loss: 0.2781 - val_loss: 0.1098
…
shape x_training : (227088, 1302)  y_training: :  (227088, 24)
shape x_test     :  (75661, 1302)  y_test      :  (75661, 24)
shape x_val      :  (75661, 1302)  y_val       :  (75661, 24)
=============================================================
(1302,)
Model: "MLP"
_________________________________________________________________
 Layer (type)                Output Shape              Param #   
=================================================================
 input_1 (InputLayer)        [(None, 1302)]            0         
                                                                 
 dense (Dense)               (None, 1024)              1334272   
                                                                 
 elu (ELU)                   (None, 1024)              0         
                                                                 
 dropout (Dropout)           (None, 1024)              0         
                                                                 
 dense_1 (Dense)             (None, 512)               524800    
                                                                 
 dropout_1 (Dropout)         (None, 512)               0         
                                                                 
 dense_2 (Dense)             (None, 512)               262656    
                                                                 
 dropout_2 (Dropout)         (None, 512)               0         
                                                                 
 dense_3 (Dense)             (None, 24)                12312     
                                                                 
=================================================================
Total params: 2,134,040
Trainable params: 2,134,040
Non-trainable params: 0
_________________________________________________________________
Epoch 1/200
222/222 [==============================] - 3s 8ms/step - loss: 0.5692 - val_loss: 0.1214
Epoch 2/200
222/222 [==============================] - 1s 6ms/step - loss: 0.2783 - val_loss: 0.1099
…
shape x_training : (227086, 1316)  y_training: :  (227086, 24)
shape x_test     :  (75660, 1316)  y_test      :  (75660, 24)
shape x_val      :  (75660, 1316)  y_val       :  (75660, 24)
=============================================================
(1316,)
Model: "MLP"
_________________________________________________________________
 Layer (type)                Output Shape              Param #   
=================================================================
 input_2 (InputLayer)        [(None, 1316)]            0         
                                                                 
 dense_4 (Dense)             (None, 1024)              1348608   
                                                                 
 elu_1 (ELU)                 (None, 1024)              0         
                                                                 
 dropout_3 (Dropout)         (None, 1024)              0         
                                                                 
 dense_5 (Dense)             (None, 512)               524800    
                                                                 
 dropout_4 (Dropout)         (None, 512)               0         
                                                                 
 dense_6 (Dense)             (None, 512)               262656    
                                                                 
 dropout_5 (Dropout)         (None, 512)               0         
                                                                 
 dense_7 (Dense)             (None, 24)                12312     
                                                                 
=================================================================
Total params: 2,148,376
Trainable params: 2,148,376
Non-trainable params: 0
_________________________________________________________________
Epoch 1/200
222/222 [==============================] - 3s 10ms/step - loss: 0.5644 - val_loss: 0.1221
Epoch 2/200
222/222 [==============================] - 2s 8ms/step - loss: 0.2751 - val_loss: 0.1086
…
shape x_training : (227084, 1330)  y_training: :  (227084, 24)
shape x_test     :  (75659, 1330)  y_test      :  (75659, 24)
shape x_val      :  (75659, 1330)  y_val       :  (75659, 24)
=============================================================
(1330,)
Model: "MLP"
_________________________________________________________________
 Layer (type)                Output Shape              Param #   
=================================================================
 input_3 (InputLayer)        [(None, 1330)]            0         
                                                                 
 dense_8 (Dense)             (None, 1024)              1362944   
                                                                 
 elu_2 (ELU)                 (None, 1024)              0         
                                                                 
 dropout_6 (Dropout)         (None, 1024)              0         
                                                                 
 dense_9 (Dense)             (None, 512)               524800    
                                                                 
 dropout_7 (Dropout)         (None, 512)               0         
                                                                 
 dense_10 (Dense)            (None, 512)               262656    
                                                                 
 dropout_8 (Dropout)         (None, 512)               0         
                                                                 
 dense_11 (Dense)            (None, 24)                12312     
                                                                 
=================================================================
Total params: 2,162,712
Trainable params: 2,162,712
Non-trainable params: 0
_________________________________________________________________
Epoch 1/200
222/222 [==============================] - 2s 8ms/step - loss: 0.5642 - val_loss: 0.1222
Epoch 2/200
222/222 [==============================] - 1s 7ms/step - loss: 0.2770 - val_loss: 0.1115
…
shape x_training : (227082, 1344)  y_training: :  (227082, 24)
shape x_test     :  (75658, 1344)  y_test      :  (75658, 24)
shape x_val      :  (75658, 1344)  y_val       :  (75658, 24)
=============================================================
(1344,)
Model: "MLP"
_________________________________________________________________
 Layer (type)                Output Shape              Param #   
=================================================================
 input_4 (InputLayer)        [(None, 1344)]            0         
                                                                 
 dense_12 (Dense)            (None, 1024)              1377280   
                                                                 
 elu_3 (ELU)                 (None, 1024)              0         
                                                                 
 dropout_9 (Dropout)         (None, 1024)              0         
                                                                 
 dense_13 (Dense)            (None, 512)               524800    
                                                                 
 dropout_10 (Dropout)        (None, 512)               0         
                                                                 
 dense_14 (Dense)            (None, 512)               262656    
                                                                 
 dropout_11 (Dropout)        (None, 512)               0         
                                                                 
 dense_15 (Dense)            (None, 24)                12312     
                                                                 
=================================================================
Total params: 2,177,048
Trainable params: 2,177,048
Non-trainable params: 0

=========== SHAPE INPUT-OUTPUT MATRIXES =====================
shape x_training : (227082, 1344)  y_training: :  (227082, 24)
shape x_test     :  (75658, 1344)  y_test      :  (75658, 24)
…
shape x_training : (227080, 1358)  y_training: :  (227080, 24)
shape x_test     :  (75657, 1358)  y_test      :  (75657, 24)
shape x_val      :  (75657, 1358)  y_val       :  (75657, 24)
=============================================================
(1358,)
Model: "MLP"
_________________________________________________________________
 Layer (type)                Output Shape              Param #   
=================================================================
 input_2 (InputLayer)        [(None, 1358)]            0         
                                                                 
 dense_4 (Dense)             (None, 1024)              1391616   
                                                                 
 elu_1 (ELU)                 (None, 1024)              0         
                                                                 
 dropout_3 (Dropout)         (None, 1024)              0         
                                                                 
 dense_5 (Dense)             (None, 512)               524800    
                                                                 
 dropout_4 (Dropout)         (None, 512)               0         
                                                                 
 dense_6 (Dense)             (None, 512)               262656    
                                                                 
 dropout_5 (Dropout)         (None, 512)               0         
                                                                 
 dense_7 (Dense)             (None, 24)                12312     
                                                                 
=================================================================
Total params: 2,191,384
Trainable params: 2,191,384
Non-trainable params: 0
_________________________________________________________________
Epoch 1/200
222/222 [==============================] - 3s 10ms/step - loss: 0.5794 - val_loss: 0.1192
Epoch 2/200
222/222 [==============================] - 2s 8ms/step - loss: 0.2800 - val_loss: 0.1091
…
shape x_training : (227078, 1372)  y_training: :  (227078, 24)
shape x_test     :  (75656, 1372)  y_test      :  (75656, 24)
shape x_val      :  (75656, 1372)  y_val       :  (75656, 24)
=============================================================
(1372,)
Model: "MLP"
_________________________________________________________________
 Layer (type)                Output Shape              Param #   
=================================================================
 input_3 (InputLayer)        [(None, 1372)]            0         
                                                                 
 dense_8 (Dense)             (None, 1024)              1405952   
                                                                 
 elu_2 (ELU)                 (None, 1024)              0         
                                                                 
 dropout_6 (Dropout)         (None, 1024)              0         
                                                                 
 dense_9 (Dense)             (None, 512)               524800    
                                                                 
 dropout_7 (Dropout)         (None, 512)               0         
                                                                 
 dense_10 (Dense)            (None, 512)               262656    
                                                                 
 dropout_8 (Dropout)         (None, 512)               0         
                                                                 
 dense_11 (Dense)            (None, 24)                12312     
                                                                 
=================================================================
Total params: 2,205,720
Trainable params: 2,205,720
Non-trainable params: 0
_________________________________________________________________
Epoch 1/200
222/222 [==============================] - 3s 10ms/step - loss: 0.5687 - val_loss: 0.1238
Epoch 2/200
222/222 [==============================] - 2s 8ms/step - loss: 0.2790 - val_loss: 0.1135
…
shape x_training : (227076, 1386)  y_training: :  (227076, 24)
shape x_test     :  (75655, 1386)  y_test      :  (75655, 24)
shape x_val      :  (75655, 1386)  y_val       :  (75655, 24)
=============================================================
(1386,)
Model: "MLP"
_________________________________________________________________
 Layer (type)                Output Shape              Param #   
=================================================================
 input_1 (InputLayer)        [(None, 1386)]            0         
                                                                 
 dense (Dense)               (None, 1024)              1420288   
                                                                 
 elu (ELU)                   (None, 1024)              0         
                                                                 
 dropout (Dropout)           (None, 1024)              0         
                                                                 
 dense_1 (Dense)             (None, 512)               524800    
                                                                 
 dropout_1 (Dropout)         (None, 512)               0         
                                                                 
 dense_2 (Dense)             (None, 512)               262656    
                                                                 
 dropout_2 (Dropout)         (None, 512)               0         
                                                                 
 dense_3 (Dense)             (None, 24)                12312     
                                                                 
=================================================================
Total params: 2,220,056
Trainable params: 2,220,056
Non-trainable params: 0
_________________________________________________________________
Epoch 1/200
222/222 [==============================] - 4s 9ms/step - loss: 0.5677 - val_loss: 0.1216
Epoch 2/200
222/222 [==============================] - 2s 8ms/step - loss: 0.2791 - val_loss: 0.1105
…
shape x_training : (227074, 1400)  y_training: :  (227074, 24)
shape x_test     :  (75654, 1400)  y_test      :  (75654, 24)
shape x_val      :  (75654, 1400)  y_val       :  (75654, 24)
=============================================================
(1400,)
Model: "MLP"
_________________________________________________________________
 Layer (type)                Output Shape              Param #   
=================================================================
 input_1 (InputLayer)        [(None, 1400)]            0         
                                                                 
 dense (Dense)               (None, 1024)              1434624   
                                                                 
 elu (ELU)                   (None, 1024)              0         
                                                                 
 dropout (Dropout)           (None, 1024)              0         
                                                                 
 dense_1 (Dense)             (None, 512)               524800    
                                                                 
 dropout_1 (Dropout)         (None, 512)               0         
                                                                 
 dense_2 (Dense)             (None, 512)               262656    
                                                                 
 dropout_2 (Dropout)         (None, 512)               0         
                                                                 
 dense_3 (Dense)             (None, 24)                12312     
                                                                 
=================================================================
Total params: 2,234,392
Trainable params: 2,234,392
Non-trainable params: 0
_________________________________________________________________
Epoch 1/200
222/222 [==============================] - 4s 9ms/step - loss: 0.5856 - val_loss: 0.1221
Epoch 2/200
222/222 [==============================] - 2s 8ms/step - loss: 0.2820 - val_loss: 0.1100
…
